lstm_model.pth (torch, 81187 bytes, 9 tensors)

lstm.weight_ih_l0 f4 [256, 7]
000000 a1 8f 51 be 1c cc 60 3d 5d fe ac be 3d 00 d5 3d
       -0.20464946 0.054882154 -0.33787814 0.10400436
000010 6c e8 df bd 4f bb 60 bd 2c ab d7 bd 88 f4 70 3d
       -0.10933003 -0.05486613 -0.10530695 0.058826953
000020 95 53 8e 3e 81 10 03 be 6e cb 38 3e e9 ae e6 3c
       0.27798143 -0.12799264 0.18046352 0.028159576
000030 f7 7c 70 3d 3a 2c 29 bd eb 47 57 be 5b 92 74 bd
       0.058712926 -0.041301943 -0.21023528 -0.059709888
000040 2b 8c 40 be 5a 91 dd bc 6f 8b ad bd b2 52 b5 3c
       -0.1880347 -0.027046848 -0.084738605 0.022134159
000050 0a e1 af bd f0 9c d2 bc 90 10 66 bc 5f 6b 69 3d
       -0.08587845 -0.0257096 -0.014042035 0.056987163
000060 56 64 e7 bd d6 f8 59 bd 7b 09 a2 bd 98 72 f4 bd
       -0.112984344 -0.053215824 -0.079119645 -0.119359195
000070 2d d9 24 be 40 0d 50 be 9f 94 86 bd ec 61 3e be
       -0.16098471 -0.20317554 -0.06571316 -0.18592042
000080 4e 48 e9 3a 13 86 00 be 70 66 2d be 2e a9 61 bc
       0.0017798038 -0.12551145 -0.16933608 -0.013773246
000090 cb 5b 73 bd 30 47 d1 3c be b1 f9 3c 12 ee d7 bd
       -0.059413712 0.02554664 0.030480262 -0.10543455
0000a0 4c 76 fd be e9 ca d1 bd 48 ea 05 bd 6e 46 81 3d
       -0.49504316 -0.1024378 -0.03269413 0.063122615
0000b0 4c 09 c8 bc 6b 86 eb bd ce c4 82 3d af 88 59 3c
       -0.024418496 -0.115002476 0.06385194 0.013277217
0000c0 cb 69 03 3e 91 a4 aa bd d2 92 89 be f9 3f 1f bd
       0.12833326 -0.0833217 -0.26869828 -0.03887937
0000d0 fd 76 27 be 00 dc e5 bc 26 b8 9f 3d 85 9e 18 3e
       -0.16353984 -0.028059006 0.077987954 0.1490422
0000e0 ac 9e 2b bd f4 55 ee bc 74 d5 7b 3c e4 bf 3f be
       -0.04189937 -0.02909372 0.015370715 -0.18725544
0000f0 8b 39 8d bc d5 22 ec bc bc 08 92 bb 38 be 57 be
       -0.017239353 -0.028825203 -0.0044566076 -0.21068656
000100 18 63 76 3d 0d 61 2c be 85 01 4a 3e 8a 5f 17 be
       0.060153097 -0.16833897 0.19727142 -0.14782539
000110 65 99 2b 3d 54 b8 ab bd d9 9d 22 3d 17 cb b0 bd
       0.041894335 -0.08384767 0.039701317 -0.08632486
000120 3b c9 55 3d 2f f1 38 be cb a7 50 be ab 31 80 be
       0.05219386 -0.18060754 -0.20376508 -0.25037894
000130 a5 0c 3f be f9 3e c6 bd 66 8b 61 bc 65 8a 74 bd
       -0.18657167 -0.0967998 -0.013766145 -0.059702296
000140 c5 18 18 be 25 dc 91 3b 8f c7 78 3e d2 ec 39 bd
       -0.14853199 0.004451292 0.24294876 -0.045391865
000150 c1 ea d1 3c a1 7b f3 bd 2e 0a e1 3c d5 06 30 be
       0.025624635 -0.11888815 0.027470674 -0.17190106
000160 df e7 17 be 83 c9 8f 3d 51 52 f7 3c e7 fc 85 be
       -0.14834546 0.07020857 0.030190619 -0.26169512
000170 4b 37 26 3e b2 31 0f be 31 80 d4 3c 91 dc 25 be
       0.1623203 -0.13983801 0.025940033 -0.1619742
000180 e1 50 32 3e f4 01 30 be 57 ab 01 be 64 e5 74 be
       0.17413665 -0.17188245 -0.12663017 -0.2391563
000190 5e b8 1d be 93 09 66 bd ae af 03 be 45 f9 3c be
       -0.15402362 -0.056161474 -0.12859985 -0.18454464
0001a0 b7 63 be bc 58 1b 75 3d 86 20 a2 bd 47 b9 99 3d
       -0.023240907 0.05984053 -0.079163596 0.07506042
0001b0 ef 99 bf bc 6d b0 00 3d 40 d6 6b 3e 2e ce 1f 3e
       -0.023388831 0.031418253 0.23030949 0.15605995
0001c0 00 54 98 3d af aa 41 be 02 99 29 bd 3a 67 13 be
       0.07437897 -0.18912767 -0.041405685 -0.14394847
0001d0 7a a8 b2 bc de 4a 1d be 1f 6e 50 bd c3 98 27 be
       -0.021808852 -0.15360591 -0.05088627 -0.16366868
0001e0 63 97 c1 be 14 ac dd bd 88 6f 96 be 5f d6 42 be
       -0.3781081 -0.10823837 -0.29381967 -0.19027089
0001f0 a5 ae 2d be 8b ab 08 be ae 24 0c 3d e1 0a 37 be
       -0.16961153 -0.13346688 0.034214668 -0.17875244
000200 4f 85 44 3e 5a f0 ba bd b0 7d d8 3d 10 a1 9d bc
       0.19191478 -0.09127875 0.10570848 -0.01924184
000210 24 53 1f be c7 68 db 3c 0f 51 e1 be 96 7d b2 bd
       -0.1555906 0.02678336 -0.44007155 -0.0871536
000220 93 5a f1 be b1 c9 1d be 9c 33 93 3d f2 f4 ae bc
       -0.47139415 -0.1540897 0.07187578 -0.021357033
000230 42 08 0e bd ed 05 76 be 6d bb 69 3c 4f ec 70 be
       -0.034675844 -0.24025698 0.014265877 -0.23527645
000240 1d 55 52 be 08 dd fd bd 95 c8 21 bd df 40 8c bc
       -0.2054028 -0.12395674 -0.03949793 -0.017120777
000250 f5 c1 ad 3d de 20 64 be 74 69 9a bd 5a 99 97 bd
       0.0848426 -0.22278163 -0.07539645 -0.07402296
000260 30 09 27 3e 7c 17 07 be 8e e6 a8 bd 09 5c b9 be
       0.16312099 -0.13192552 -0.082471 -0.3620303
000270 f5 59 e4 bd d4 ca 56 be e8 c2 8e be 1a 18 76 be
       -0.111499704 -0.2097581 -0.27883077 -0.24032632
000280 e8 3d 30 3e ba c3 90 3c 9f 45 05 bc 2c 17 04 be
       0.17211115 0.017671455 -0.008134275 -0.12899464
000290 f3 f7 46 3d 1d 99 43 3d 5d 43 5a bd 20 85 00 3e
       0.048576307 0.047753442 -0.0532869 0.12550783
0002a0 e9 9f 85 bd 6a 96 77 be 21 02 21 be 60 28 28 be
       -0.06524641 -0.24178472 -0.15723468 -0.16421652
0002b0 c8 43 2c 3d 5d 6c 30 be 2a a8 82 be 92 46 d1 bc
       0.04205683 -0.17228837 -0.25518924 -0.025546346
0002c0 d5 fb 97 bd 5e f6 9b 3d 04 42 ff 3d 7d 8b 79 be
       -0.0742108 0.0761535 0.12463763 -0.24369617
0002d0 66 0d 1d bd d3 20 ac bc 81 4f a6 3d b2 ef 95 3b
       -0.038342856 -0.021011746 0.08120633 0.004575693
0002e0 3b 31 01 3e ea 19 0c 3e 33 e0 ef 3d dc 1b 34 3b
       0.12616436 0.1368176 0.117126845 0.0027482426
0002f0 5a b1 05 bc 61 06 13 3d a1 80 6e bd 04 95 8e bc
       -0.00815996 0.035894755 -0.05822814 -0.01740504
000300 25 17 75 3d e8 3e 46 3e 10 98 68 3d 11 1a f9 bc
       0.059836525 0.19359934 0.056785643 -0.030407937
000310 fa a4 a0 3c 89 60 8a bd 3d 5c 3a 3d 2a 89 e5 bb
       0.019609917 -0.06756694 0.04549812 -0.0070048766
000320 e1 e0 81 bd 8f 7d 9f bc b8 c2 d0 3d 6f c9 f2 bc
       -0.0634172 -0.01946905 0.1019339 -0.029637067
000330 05 3d 47 bd 5d 19 dd bd 4b 80 4f bd db 92 43 bf
       -0.048642177 -0.10795853 -0.05065946 -0.7639596
000340 2c 47 83 be d9 41 b4 bd 2d 01 17 3d e7 b7 88 3d
       -0.25640237 -0.08801622 0.036866356 0.066757016
000350 e1 91 1c be 2c 62 25 bd 78 f9 ae bd a8 4e 31 3e
       -0.15290023 -0.040376827 -0.08543676 0.17315161
000360 92 be 1c bd 42 2b 13 bc 86 8e d9 3c 25 35 1b bd
       -0.03826768 -0.008982481 0.026557218 -0.03789248
000370 8e 5b be bd d6 9e 86 3e b9 a4 59 3d 4f 73 0b be
       -0.092948064 0.26293057 0.053135607 -0.13618205
000380 00 43 4c be 20 8e e9 3c 15 31 36 3d 26 a6 96 3d
       -0.19947433 0.028510153 0.044480402 0.07355909
000390 a4 1b e1 be f3 70 97 be af 09 10 be d9 39 b3 3d
       -0.439664 -0.2957836 -0.14066194 0.08751268
0003a0 19 ba c9 3b 0a 3a e1 3d 53 a6 cd 3c 68 77 25 3d
       0.006156218 0.10997398 0.025103724 0.040397078
0003b0 24 a4 3a 3d 19 dd 71 bd 36 db 6b 3e 8c c5 02 3e
       0.045566693 -0.059048746 0.23032841 0.1277067
0003c0 12 12 c8 3e 66 42 72 3e 69 6b 84 3e 01 37 8b 3d
       0.39076287 0.23658141 0.25863197 0.067976005
0003d0 c9 bd 82 3e ec 97 8d be 4b 69 f7 bd 62 73 0d be
       0.2553542 -0.2765497 -0.1208063 -0.13813546
0003e0 22 77 cf 3a 03 ee 87 3d d2 fa 1f 3e e8 cd cf 3d
       0.0015828351 0.06637194 0.15623024 0.101466954
0003f0 99 6c 05 3d 7e 41 0b bd 1f 0d 5d 3c c2 a4 39 bd
       0.03257427 -0.033998005 0.013491898 -0.04532314

lstm.weight_hh_l0 f4 [256, 64]
000000 17 22 c8 bd 4d 21 f8 3c b3 07 95 bd d0 e3 48 bd
       -0.09772127 0.030289317 -0.07276859 -0.049045384
000010 b2 4c 3e be 31 30 fd 3d ba 17 95 3d 79 45 26 3e
       -0.18583944 0.123627074 0.07279916 0.16237439
000020 00 b1 1e be 7e 05 60 be 71 8a 56 bd 03 42 17 bd
       -0.15497208 -0.21877095 -0.05237812 -0.036928188
000030 90 b3 7d be 2d 34 e8 bd 69 70 8e 3d 84 c2 98 be
       -0.24775529 -0.11338077 0.06955034 -0.29835904
000040 5e e7 86 bd 15 be 2f 3e 31 0e ed bd 96 45 e5 bd
       -0.065870985 0.17162354 -0.115749724 -0.11194913
000050 39 b5 f8 bd bd cc 26 3e d3 9c 7d 3e f1 84 6e 3e
       -0.121439405 0.16289039 0.24766855 0.232929
000060 2b 00 01 be 40 71 09 be 0c d1 3e 3e 0c 38 0a be
       -0.1259772 -0.13422108 0.18634433 -0.13497943
000070 17 1c 8f be 82 a9 d0 3d 80 5a d7 3d 78 2c a3 bd
       -0.27951118 0.10188581 0.105153084 -0.07967466
000080 78 66 31 3e a5 a2 b7 38 b1 f9 ae 3e 7a bb 33 3d
       0.17324245 8.756415e-05 0.34174874 0.043879963
000090 d5 83 30 3e 08 3b b7 bc e1 5f a9 3d 13 9c 2c 3d
       0.1723779 -0.022367015 0.082702406 0.04214103
0000a0 f5 41 09 3c 80 33 ae be f1 d6 e6 3c ca 33 10 be
       0.008377542 -0.34023666 0.028178664 -0.14082256
0000b0 cc f4 a9 bd 2d 50 3d 3e 27 b8 88 3e 99 fc 7c be
       -0.082986444 0.18487616 0.26702997 -0.24705733
0000c0 41 5e f7 bd db 15 75 bc 24 5f 5c 3e ac 4f af 3c
       -0.120785244 -0.014958824 0.21520668 0.021400295
0000d0 72 be c2 be 33 66 5f 3e 1a b7 4c 3d 72 87 03 3e
       -0.38035923 0.2181633 0.049979307 0.12844637
0000e0 a9 47 18 3e 2d ec ae bc 1f 4e 49 be 77 93 37 3d
       0.14871086 -0.021352852 -0.19658707 0.044818368
0000f0 7b c4 2c 3e 65 55 80 be e0 4a 1c be 54 e5 9a 3d
       0.16871826 -0.2506515 -0.15262938 0.07563272
000100 f0 49 e2 bc ea 7b 91 3c c2 67 7a bd 9f f0 2e 3e
       -0.027623147 0.017759282 -0.061134107 0.17083977
000110 60 e4 13 3d ae 58 83 3d c6 2a a9 3d 23 f6 6a 3e
       0.036106467 0.06413399 0.082601115 0.22945456
000120 1e 49 af 3d b7 9b e4 3e 4c eb 2c 3d 5e bc 27 3e
       0.08558868 0.4465005 0.042216584 0.1638045
000130 55 ad 28 be 04 76 55 3d cb e5 a8 3d cf a3 df be
       -0.16472371 0.0521145 0.082469545 -0.43679664
000140 5f 67 4c 3d 1c 8b 92 3e fb 92 d0 bd 67 bd 41 3e
       0.04990327 0.28621757 -0.10184284 0.18919908
000150 98 0b cb 3d 51 a3 8c 3c ef 37 63 bd 7d ae ed 3d
       0.09914321 0.01716772 -0.055473264 0.116055466
000160 9e 29 a6 be 20 30 d4 be 73 04 a5 3e 64 d7 06 be
       -0.32453626 -0.41442966 0.32229957 -0.13168103
000170 0c 81 68 be 32 d9 86 be 9a 5b 25 3e a7 e2 f4 bd
       -0.22705477 -0.26337582 0.16148224 -0.11957293
000180 4e 0b a2 3e 71 8c 2e be 65 1b a0 3e b7 ee e5 3d
       0.3164925 -0.17045762 0.312709 0.11227172
000190 a8 ce fb bb 41 11 05 be 9f 49 fd 3b 98 e4 55 3c
       -0.0076845475 -0.12994863 0.0077297236 0.013054989
0001a0 6e bc 29 3e e1 0d e7 be 85 0f 19 3e a7 bc 3f be
       0.16575786 -0.45127776 0.14947326 -0.18724309
0001b0 5e 0b 48 3d f8 38 20 3e c6 72 b5 3d 8e fa 85 3d
       0.048838966 0.15646732 0.08859782 0.0654193
0001c0 48 63 c3 3d 37 66 cd 3d 7e 8b 0b 3e f0 18 32 3c
       0.09540421 0.100292616 0.13627431 0.010870203
0001d0 7d d9 aa be e8 a0 9d 3d 58 7f 4a be b7 d2 2f 3e
       -0.33369055 0.07696706 -0.1977514 0.17170225
0001e0 52 0a 32 3e da a8 00 be 23 a8 a8 be c4 a8 85 3e
       0.1738675 -0.12564412 -0.32940778 0.2610532
0001f0 db 75 ad 3c 34 d0 f9 be 50 72 84 bc f2 b1 3d be
       0.021174362 -0.4879166 -0.01616779 -0.18524912
000200 3c 96 ea 3c 8c 4a 12 be 43 a8 89 bd 9c d9 0d bd
       0.02863609 -0.1428625 -0.067215465 -0.034631357
000210 e9 0e 43 3d 83 9b 97 3e 07 e7 83 3b 86 3b 29 3a
       0.04762164 0.29610834 0.0040253433 0.0006455708
000220 4c 23 a3 3d 13 47 1a 3e 50 24 09 be 0c 38 b4 3c
       0.07965717 0.15066175 -0.13392758 0.021999381
000230 e6 f3 b4 be 0f d9 f3 bd 2e 23 0d bd 4f 2e ab be
       -0.3534233 -0.11906635 -0.034457378 -0.33433768
000240 c7 0f 4c 3d b5 e6 99 3d e5 08 22 bd e5 ac d5 3d
       0.049819734 0.07514707 -0.039559264 0.10433368
000250 fe ad 1e 3e 52 0e a1 bd 22 e6 0c 3e e0 51 31 3e
       0.1549606 -0.078640595 0.13759664 0.17316389
000260 33 3b a1 bd 69 8c e1 bc 1e 30 0d 3d c6 dd 73 be
       -0.078726195 -0.027532773 0.034469716 -0.23815069
000270 67 34 8c 3c a8 e3 f4 bd 6b 33 cb 3d 18 77 ab be
       0.017114831 -0.119574845 0.099219166 -0.334893
000280 63 eb 6d 3d 2c 39 0f be 83 15 f3 3d 0a c4 1d 3e
       0.05808581 -0.13986653 0.118693374 0.15406814
000290 8c c9 91 3d 11 77 7e bd 0f bf 23 3e e5 9d de 3d
       0.0711852 -0.06212527 0.15990852 0.1086996
0002a0 b7 9d 17 be 0a 22 89 be 25 8c 04 bd 94 81 e1 bd
       -0.14806257 -0.26783782 -0.032360215 -0.11011043
0002b0 d1 2b 65 be 77 99 a8 3c 2d 72 cc 3d b1 a8 1c 3d
       -0.22379996 0.02058099 0.09982715 0.038246814
0002c0 28 29 2c be 71 d0 43 bc 31 d1 e6 3e 73 e5 5f bd
       -0.16812575 -0.011951552 0.45081475 -0.05466218
0002d0 67 0d d9 be 7a d8 83 3d fd 23 12 be d7 2e 26 3e
       -0.42393038 0.06437774 -0.14271541 0.16228805
0002e0 81 95 9d bd ed f6 7b 3d a1 03 31 be 1a 3d 4a 3e
       -0.07694531 0.061514784 -0.1728654 0.19749871
0002f0 ed 8a 83 3e 78 3f 6d be a6 62 64 bd 15 e3 5e bc
       0.2569193 -0.23168743 -0.05575814 -0.013603945
000300 4f 4d a3 3e b1 74 82 bc 44 87 5c 3d 58 a8 eb 3d
       0.3189492 -0.015924783 0.053839937 0.115067184
000310 58 83 00 be 6f 48 c5 3e 0c 16 61 3b 4d d5 02 3e
       -0.12550104 0.38531825 0.0034345416 0.1277668
000320 de 26 a3 3e df ed 63 3e 8e 20 97 be 14 47 cb bd
       0.3186559 0.2225871 -0.29517025 -0.099256665
000330 97 25 08 be 39 ac 83 3d 52 73 36 be 4a 14 d2 be
       -0.1329559 0.06429333 -0.17817429 -0.41031104
000340 17 28 81 bd 57 24 d6 3e 5d 3a 0f 3d 4c 64 dd 3e
       -0.06306475 0.418246 0.03496777 0.43240583
000350 37 16 c1 3d 2f d6 41 be 54 7e 35 bd 74 16 ae 3e
       0.09428065 -0.18929361 -0.04430993 0.34001505
000360 e9 6d 8a 3b c4 3f 80 be eb c2 09 3f 8d 44 d2 be
       0.004224528 -0.2504865 0.53813046 -0.41067925
000370 04 8d 13 bf b9 7d c3 be 2a 3c bd 3e 77 27 0c bf
       -0.5763705 -0.38181856 0.36959964 -0.5474772
000380 04 86 60 3e 15 bf 50 be 76 ce d5 3e 2c b7 b8 3d
       0.21926123 -0.20385392 0.4175908 0.09019312
000390 47 65 8e 3e ca 15 c3 bd 8c 1d 1c 3e a1 c8 90 3d
       0.27811643 -0.0952564 0.15245646 0.07069517
0003a0 23 b9 84 3d ca bc 09 bf 37 6a 1b bd 1f 23 bb be
       0.064806245 -0.53803694 -0.03794309 -0.36550233
0003b0 a3 93 94 bd ea 1a 16 3f b1 db c9 3e 0f 97 0c bd
       -0.07254722 0.5863482 0.39425424 -0.03432375
0003c0 21 07 d5 bd 84 4d 4c bc 94 f8 0d 3e 90 51 fd 3b
       -0.1040175 -0.012469653 0.13864356 0.0077306703
0003d0 2f a2 19 be 70 a6 25 bd 87 fd 8c 3d bf 7c e0 3e
       -0.15003274 -0.04044193 0.06884294 0.43845174
0003e0 ea c8 85 3e d4 77 b9 bc 56 0e ff be 6e 06 6b 3e
       0.26129848 -0.022640146 -0.49815625 0.22951671
0003f0 ba d1 78 3e 08 06 62 be 10 7e 60 be 60 8b 06 3e
       0.24298754 -0.22072613 -0.21923089 0.13139105

lstm.bias_ih_l0 f4 [256]
000000 8f 1a 23 3d e3 c6 81 bd 2a 3c c6 3c 11 0c 83 3d
       0.03982025 -0.06336763 0.02419861 0.06398786
000010 eb 59 a5 bd 01 e0 09 3e 00 e8 29 be 6c c3 a2 bd
       -0.08073791 0.13464357 -0.16592407 -0.0794743
000020 e8 1c 22 3d 88 fb 71 3e 38 13 ec bc ef 8c 6f 3d
       0.03957835 0.23631108 -0.028817758 0.058484014
000030 81 56 31 bd 13 18 21 bd b2 33 dc bd d2 0d ac 3d
       -0.043295387 -0.0393296 -0.107520476 0.084010735
000040 9e 64 99 3d f2 7c 9d bd 03 62 15 be 54 33 52 bd
       0.07489894 -0.07689847 -0.1458817 -0.05131848
000050 63 16 a1 bd 58 a6 4e be 4b 87 60 bd d5 9b 90 bc
       -0.07865598 -0.20180643 -0.054816525 -0.017652432
000060 01 63 e6 39 f6 08 86 b9 19 f5 b9 3d a1 bf 3b bc
       0.00043942782 -0.00025565148 0.09079952 -0.011459262
000070 bb 01 0b be 23 da 08 3e 6d 57 64 3b 7c 01 26 bd
       -0.13574879 0.13364463 0.003484215 -0.04052876
000080 f1 e1 59 3d 75 7e ad 3d 0b 99 3b 3e ea e4 5c bd
       0.05319399 0.084713854 0.183201 -0.053929247
000090 da 62 69 bd 3a 79 58 3d 9c bb 9a 3d 2d cd 02 3d
       -0.056979038 0.052849986 0.07555315 0.031933952
0000a0 01 7b 1d 3e 6f 0e d2 3d 82 b5 8b 3d 42 02 af 3d
       0.15378954 0.10256659 0.06821729 0.085453525
0000b0 f0 b1 58 3d 32 49 0f 3d 4b 97 5b bd 46 a6 3e 3e
       0.05290407 0.034981914 -0.05361108 0.18618116
0000c0 99 1f 3e bd cb 1b 3c be bf 0e d4 bd 76 17 35 3c
       -0.046416853 -0.18369977 -0.10354375 0.011052957
0000d0 46 64 2b 3c 2c 32 02 3c 8c e8 65 3d 6c 69 b9 bd
       0.010460919 0.007946532 0.056129977 -0.09053311
0000e0 20 19 fb bd 7d d6 d4 3d 7e 9a cc 3d 36 7d 93 3d
       -0.122606516 0.10392473 0.099904045 0.072016165
0000f0 44 54 65 bd 2c 73 57 3e 96 08 bc 3d be 7c d7 bd
       -0.055988565 0.21040028 0.09181325 -0.105218396
000100 41 23 42 bd 5f be ac bd cc 38 a3 bb ca a0 14 be
       -0.047396902 -0.08434748 -0.004981136 -0.14514461
000110 1a e5 dc be be f5 a4 be ff 18 7b be b3 20 76 3e
       -0.4314354 -0.32218736 -0.24521254 0.24035911
000120 8e 76 c7 bc 53 91 b8 3d c8 50 de bd 9b 0f 92 bd
       -0.024348523 0.090120934 -0.108552516 -0.07131883
000130 8b cc 93 bd c6 82 5f 3d 45 3f 91 3c bc 4d dc 3d
       -0.07216748 0.054568075 0.017730365 0.10757014
000140 ad c0 6d bd 85 a4 b8 bd 93 c0 07 be 98 d9 4e 3c
       -0.058045078 -0.090157546 -0.13257055 0.012625121
000150 3d e0 82 be b8 81 f8 bb 0e b3 aa be 18 9e 86 bd
       -0.25561705 -0.007583823 -0.33339733 -0.06573123
000160 a1 29 3c bd 36 d0 c4 bc a9 0a c8 3d 80 88 96 3c
       -0.045938138 -0.024025064 0.09767658 0.018375635
000170 94 a9 43 3d 82 c9 e9 bb 32 51 a4 bd fd af fe bc
       0.047769144 -0.0071346173 -0.08023299 -0.031089777
000180 8c e4 75 bc 9b 0f 20 3e ae 7c 04 3d 25 cf bc bc
       -0.015008103 0.15630953 0.032345466 -0.023047993
000190 59 2d a9 3c ec 13 30 3e 2e db 2b bd 21 d3 18 bd
       0.020651506 0.171951 -0.041957073 -0.037310723
0001a0 c6 9f d5 3d eb 1f c7 3d 54 ab 20 3e 30 83 c5 bc
       0.10430865 0.09722885 0.15690356 -0.024110407
0001b0 a2 46 fe 3d 63 9e 81 bd 1d 0c 48 3e 95 0b 1d 3e
       0.12415816 -0.06329038 0.19535871 0.1533645
0001c0 79 b2 07 3e ff f8 2e be 5a 5e 86 bd f9 10 99 3d
       0.13251676 -0.17087172 -0.06560965 0.074739404
0001d0 83 91 1b 3e 47 d9 e9 bd 58 e4 87 3c ff 78 56 be
       0.15192227 -0.114183955 0.016588375 -0.20944594
0001e0 9d 87 73 3c 64 83 5e 3d 2f ec 9e 3d 96 25 7b 3d
       0.014863876 0.054324523 0.07759892 0.06131514
0001f0 19 31 c5 3c dc 43 84 3c 21 45 34 3d 2d b3 d1 bd
       0.024071263 0.01614564 0.04401124 -0.10239253
000200 48 56 1d 3d 2f 0e c3 3b 3d f8 f0 3d 20 c4 ba bd
       0.038412362 0.0059526186 0.11766098 -0.09119439
000210 19 4a cd bc 45 6d c8 3b 9b 62 da bc d8 28 05 3e
       -0.025059747 0.0061165416 -0.026658347 0.13003862
000220 21 32 2f 3d 81 7f 99 3d 62 f7 a3 3d a7 9c 9d bc
       0.042772416 0.074950226 0.08006169 -0.019239737
000230 d0 0f 9e 3d a0 da b2 ba 8b 8e 8d 3d 41 a5 5d 3d
       0.0771786 -0.0013645478 0.069119535 0.054112677
000240 08 67 53 3d bf 7a 76 3d de 5b 5e bd 10 30 fb 3d
       0.05161193 0.060175654 -0.05428683 0.122650266
000250 68 4a e1 3d 0f a7 25 bc e3 14 87 bc df 89 05 be
       0.1100052 -0.010110631 -0.016489452 -0.13040875
000260 93 73 eb 3c a1 94 bd bd fc c3 0f be 30 18 cb 3d
       0.028741634 -0.09256864 -0.14039606 0.09916723
000270 1a ae f4 3b e0 f7 11 3d e5 35 d7 bd 94 07 c4 bd
       0.0074670436 0.035636783 -0.105083264 -0.09571758
000280 9b 11 c4 bb c0 43 8b 3d ad f0 1d be 4f c0 9d bd
       -0.005983544 0.06800032 -0.15423842 -0.077026956
000290 fc ae 53 bd e8 5c 84 bd af cf 0b 3e 2f 46 b6 3c
       -0.05168055 -0.06463033 0.13653444 0.022250263
0002a0 9a e6 ff bd a5 13 ae 3a c1 9e ca 3b 50 5c 8b bc
       -0.12495156 0.0013281001 0.0061834757 -0.017011791
0002b0 80 34 ef bd d0 17 1e 3d 20 b5 d9 bd 9a e8 94 3d
       -0.116799355 0.038596928 -0.1063025 0.07270928
0002c0 cc da 64 bd c2 a0 00 be 8e 05 2b bd 03 02 d3 bd
       -0.055872723 -0.12561324 -0.041753344 -0.10303118
0002d0 09 90 04 be 43 db 94 bd bb 82 ef bc a9 80 5d bd
       -0.1294557 -0.07268383 -0.029237142 -0.054077778
0002e0 e3 5f ce 3c ff 7a a7 bd 93 64 5a 3b cf 7a 4e 3d
       0.025192207 -0.081777565 0.0033324107 0.05041009
0002f0 d2 6f 8b bd 08 5e a5 bb 22 50 a7 bd 13 2f c8 bd
       -0.068084374 -0.00504661 -0.08169581 -0.09774604
000300 9f 9f 63 3c fd df 70 bd a0 39 5b bd e8 9b 36 3d
       0.013893037 -0.058807362 -0.053521752 0.044582278
000310 c9 96 25 be 6c 67 4d bd d8 7a 46 be 5b 0c 71 3d
       -0.16170801 -0.05014746 -0.19382799 0.058849674
000320 c5 62 10 be c4 7e 81 3e 72 ee e2 bd b8 1e d2 3d
       -0.14100178 0.25292027 -0.11080636 0.102597654
000330 7a db f2 bc 6f 7f 11 be 3b 39 2e be 35 b1 5b 3e
       -0.02964567 -0.14208768 -0.17014019 0.21454318
000340 16 69 1a be ef b9 57 3d e7 3d b4 bd 84 79 09 be
       -0.1507915 0.052667554 -0.088008694 -0.13425261
000350 6f c1 2b be 01 45 82 bc 9a 3d a3 bd cc 28 fc bd
       -0.16773008 -0.015902044 -0.07970734 -0.12312469
000360 77 56 ce bd b9 c3 18 bd 1d 3c b8 3d 6c cc a8 bd
       -0.100750856 -0.03729603 0.08995841 -0.082421154
000370 da 27 24 3d c2 95 60 3c 28 c1 84 bd 24 d4 fe 3d
       0.040077068 0.01370758 -0.06482154 0.12442806
000380 73 05 b4 bd ea 4f d4 3a 0c d2 1c 3e fc 32 fe bc
       -0.08790102 0.0016198133 0.15314502 -0.03103017
000390 d0 7d f5 3c 72 cb 84 bd 08 83 10 3e da 43 0d be
       0.029967219 -0.064841166 0.14112484 -0.13795415
0003a0 02 89 ae 3c 0b 25 35 3e 96 a7 6b 3c 98 c1 f7 bc
       0.021305565 0.17689912 0.014383217 -0.03024368
0003b0 d5 2f 73 3d 23 ff 2c 3d d2 54 09 3e 4a e5 dc 3d
       0.059371788 0.042235505 0.13411263 0.10785921
0003c0 26 75 6d 3d b7 eb 45 be ba 5f 05 bd f0 23 34 3d
       0.05797305 -0.193282 -0.032561995 0.043979585
0003d0 1d 63 94 3d a1 1d 26 be e3 0d b6 bd 0c 0b 09 3e
       0.07245467 -0.1622224 -0.088893674 0.1338312
0003e0 54 95 b3 bd 38 2c ce 3d fd 40 ef 3c 20 da 75 3c
       -0.087687165 0.10067028 0.029205794 0.015005618
0003f0 5a 02 51 bd 0d 95 1a 3e a1 48 cc 3b 7e a6 dd bc
       -0.051027633 0.15095921 0.006234244 -0.027056929

lstm.bias_hh_l0 f4 [256]
000000 87 92 69 bd a1 e2 8f bd 25 96 e7 bd 40 3d 04 be
       -0.057024505 -0.07025648 -0.11307935 -0.1291399
000010 bd 6d e4 bd ab 52 0d bd fd 00 53 bd 8d 43 05 bb
       -0.111537434 -0.034502666 -0.051514614 -0.0020334453
000020 af 15 9f 3c 81 6f b7 3d 4f 74 8a bb e6 54 b6 3b
       0.01941952 0.089568146 -0.004225291 0.00556432
000030 c1 ab ab bd 1d c4 73 bd 05 3d fe bd 2c 98 f4 3d
       -0.08382369 -0.0595132 -0.12413982 0.11943087
000040 88 0b d1 bd 01 ca 8a 3c 9d d8 83 bd 36 71 97 bd
       -0.102072775 0.016942026 -0.064378 -0.0739464
000050 ef e1 80 be 1d 93 02 be 68 ea f5 bc 63 93 41 3d
       -0.25172374 -0.12751432 -0.030019 0.0472597
000060 a9 c7 88 bd dd 04 81 bd bf 27 71 3d 95 50 94 3d
       -0.06678707 -0.06299756 0.058875795 0.07241932
000070 e3 3e 8c 3d 79 75 30 bd 99 e3 69 3c 36 a9 06 3e
       0.06847932 -0.04308078 0.014275455 0.13150486
000080 86 0e c6 3c e3 53 8c bd 42 17 d2 3d 6a 44 37 bd
       0.024176847 -0.068519376 0.10258342 -0.04474298
000090 82 0a 7b bd 73 02 af bd 0f aa 1f 3e 4a 31 6b bd
       -0.061289318 -0.08545389 0.15592216 -0.057420053
0000a0 c2 a2 e6 3d ea 4f 61 3d e2 e7 b4 3d 10 93 1d 3c
       0.11261512 0.055007853 0.08833291 0.009617582
0000b0 be 5b 76 bd c1 6c 51 3d b5 0d 9d 3d 6b 0c b0 3d
       -0.060146086 0.051129106 0.0766863 0.085961185
0000c0 60 a9 84 3d 5a a0 d3 bc 2b 96 c9 bd 56 8f b5 bd
       0.06477618 -0.025833298 -0.098430954 -0.0886523
0000d0 8e ea ed 3d fe c8 69 bd 51 d0 ab bd 09 fb 84 3d
       0.116170034 -0.057076447 -0.083893426 0.06493194
0000e0 49 3b 39 be ba 5f 0c 3d 05 59 49 3d 1b 0e 08 3d
       -0.18089022 0.03427098 0.04915716 0.033216577
0000f0 9d fd 6a bc 50 cd 70 3d 7d ad 9b bc 16 3a 44 3d
       -0.014342693 0.05878955 -0.019003624 0.047906958
000100 cb f8 43 be 2f e4 b4 bd 1f 99 f2 bb b2 ce 83 be
       -0.19137876 -0.08832585 -0.0074035074 -0.25743634
000110 58 d0 98 be 20 e3 42 be 2f d2 6e be 5a 01 04 3e
       -0.29846454 -0.19031954 -0.23322366 0.1289114
000120 9a 85 8a bc 0d b2 3b 3d f6 94 5f 3d 72 a4 b2 bb
       -0.01690941 0.0458241 0.05458542 -0.0054517323
000130 4a 82 cd bd 31 6a cf 3c 6a 16 1a bc c6 cf 5f 3e
       -0.10034616 0.02531919 -0.009404758 0.21856603
000140 2f a6 70 be 8b 14 cb bd fb 61 1a be 1b cf 21 be
       -0.23500894 -0.09916028 -0.15076439 -0.1580166
000150 c8 e6 a3 be ed 7a 4d be 42 b4 91 be 5e ac 12 be
       -0.3201201 -0.20066424 -0.28457838 -0.14323565
000160 62 02 b4 bd 99 e9 91 bd 5f 10 d4 3d 0b 57 73 bd
       -0.08789517 -0.07124633 0.10354685 -0.059409183
000170 50 fd b3 3d 3a 46 e7 3d 76 bb 11 be d6 d0 0f bd
       0.0878855 0.112926915 -0.14231667 -0.03511127
000180 bc e1 8c 3d 43 1c 6e 3e 93 8a 9d bc 8f 9d f9 3c
       0.06878993 0.23252968 -0.019231116 0.030470638
000190 7f ea 43 3e 74 26 19 3e 2b fa 00 3e a1 91 cc bd
       0.19132422 0.14956075 0.12595432 -0.09988714
0001a0 6a c3 0f 3d 64 b4 1c 3d 16 27 01 bd 16 8f df bd
       0.03509847 0.03825797 -0.031531416 -0.10915963
0001b0 a2 d8 1d 3e 13 5d 19 3d 7d 75 e5 3d de 6b 35 3d
       0.1541467 0.037442278 0.1120405 0.044292323
0001c0 65 07 0e 3e 9c f5 0d bd 8d d8 91 3c 9f 57 d9 3d
       0.13870008 -0.03465806 0.017803455 0.106124155
0001d0 e4 2c f9 bc 7b 03 5f bc 43 03 e0 bc a6 52 d5 3b
       -0.030416913 -0.01361167 -0.027345305 0.0065100966
0001e0 51 b8 c3 bd e3 07 92 bd e0 5f 0b 3e 25 93 e8 bd
       -0.0955664 -0.071304105 0.13610792 -0.113561906
0001f0 cd 51 21 3c f7 8d 73 bd 86 4f a9 3d 8c 17 f9 bc
       0.009846163 -0.05946156 0.08267121 -0.030406736
000200 59 de b3 bd d8 8b 21 bc 74 5c 0e bd fe 93 10 bd
       -0.08782644 -0.0098600015 -0.03475614 -0.035297386
000210 bd e1 a1 3d 5c 41 d3 3d 7c eb 26 3d f3 06 0b bd
       0.07904384 0.10315201 0.04075192 -0.033942174
000220 80 cf 91 3c 03 93 9a bd cd a8 9f bc d2 34 6d 3d
       0.017799139 -0.075475715 -0.01948967 0.0579117
000230 7d 8b f2 bc c3 b9 04 3e af 18 d3 3d b3 fd 92 3d
       -0.029607529 0.12961487 0.103074424 0.071772955
000240 69 0e 26 bc bb 10 ae bc bc 28 35 3d 99 ea 0d 3d
       -0.010135272 -0.021248212 0.0442283 0.034647558
000250 e4 69 c7 bd 58 23 b1 bd 49 2f af 3c 09 e1 42 3c
       -0.09736994 -0.086493194 0.021384852 0.011894473
000260 31 66 27 3d db 83 bc 3d b2 8b 72 3c 7c fb b5 3d
       0.04086894 0.09204837 0.014803814 0.088858575
000270 01 36 93 3d 90 e9 28 be af 14 f2 3d a6 e1 ae bd
       0.07188035 -0.16495347 0.11820351 -0.08539133
000280 58 eb 53 bd cb 38 e8 3b f7 1c 13 be 54 e8 23 3d
       -0.051738113 0.0070868484 -0.14366518 0.040016487
000290 c5 91 2b bc d4 35 1d 3d e6 17 65 bd 77 82 b4 3c
       -0.010471766 0.038381413 -0.055930994 0.022034867
0002a0 04 43 56 3d 20 db 88 3d 48 0f 8e 3d bb 00 27 bc
       0.052310005 0.0668242 0.069365084 -0.010193045
0002b0 fb c7 fc 3c 12 02 16 be 6e 60 8a bd 17 03 bd bc
       0.030857077 -0.14649227 -0.06756674 -0.023072762
0002c0 bb 48 a9 bc 97 ac a8 3d 42 77 08 3d 9d a5 9f 3d
       -0.020664563 0.08236044 0.033316858 0.0779526
0002d0 76 f4 76 bc 54 ef 0f bd e6 e4 84 bd 37 3f fa b9
       -0.0150729325 -0.03514035 -0.064889714 -0.00047730815
0002e0 a0 4a 22 be 7d 6a b0 3d 6c ba 0a 3e 31 b6 23 3d
       -0.1584878 0.08614061 0.13547677 0.039968673
0002f0 4c 14 ba 3d 81 5f 14 3e 09 01 15 3d a5 b2 79 3c
       0.090859026 0.14489557 0.03637794 0.015240346
000300 40 61 b3 bd 6d 10 48 be 54 08 18 be 56 f9 79 bd
       -0.08758783 -0.19537516 -0.14846927 -0.0610288
000310 80 ec 7c be 4c 41 03 bd 89 39 53 bd 66 dd fe bc
       -0.24699593 -0.032044694 -0.05156854 -0.03111143
000320 7b e6 2e be 87 87 4b 3d f4 b8 41 bd 09 96 48 3c
       -0.17080109 0.049689796 -0.047295526 0.012242802
000330 fb 5d 03 be b9 8a 3d be 59 7a 6d 3b a7 84 59 3e
       -0.1282882 -0.1850995 0.0036236255 0.21242009
000340 24 bd 0e 3a b7 c5 de 3c 0a 73 39 bd 5f 21 32 3c
       0.0005445054 0.027193887 -0.045275725 0.010872214
000350 77 82 7b bd 4f fd 12 be 26 be e4 bd b8 b7 56 bd
       -0.061403718 -0.14354442 -0.111690804 -0.0524213
000360 c9 2b 17 3d bd 41 4a be be 64 19 bd 2c ae 9a bd
       0.03690699 -0.1975164 -0.03744959 -0.07552752
000370 1e 2e 80 bd 4e 47 15 3e d6 ba 8c bc 06 0a b3 3d
       -0.06258796 0.14577982 -0.017178934 0.08742146
000380 94 51 ad 3b a1 ed e8 3c 87 9c fe 3d bb 02 3c bd
       0.005289266 0.028433623 0.12432199 -0.04590104
000390 9f bd 52 bd f8 0d 69 3d ff b5 ac bd 16 41 24 be
       -0.051450368 0.056898087 -0.084331505 -0.16040453
0003a0 db 72 65 3d 1d 5f 66 3e 9d 57 12 ba 60 70 a2 bd
       0.056017738 0.2249722 -0.00055825134 -0.0793159
0003b0 f6 aa 64 3e a7 a1 73 3d e8 d4 75 bd 9f 4f 83 3e
       0.22330841 0.059480336 -0.060017496 0.25646684
0003c0 72 33 f0 3d ad a1 8e bd 59 fd f3 3d 87 16 12 be
       0.117285624 -0.06964431 0.119135566 -0.14266406
0003d0 80 3e f7 3c 1f 39 97 3d d3 8c fe bd ce 05 86 bd
       0.03018117 0.07383942 -0.12429204 -0.06544076
0003e0 4e 53 8b bd ba a7 92 3c 97 4e 3c 3e 6f b1 5c bd
       -0.068029985 0.017902244 0.18389355 -0.05388015
0003f0 b4 38 35 3e c4 f3 41 3e 60 64 99 bd 9b c8 07 be
       0.17697412 0.18940645 -0.07489848 -0.13260119

fc_trad.weight f4 [7, 64]
000000 b2 21 d9 3d 44 55 50 bd 50 45 c4 3c 68 d7 34 3d
       0.1060213 -0.050862566 0.023958832 0.04415074
000010 18 93 eb 3c 42 08 84 bd 00 77 ae bd 90 ff c5 bd
       0.028756663 -0.064468876 -0.08518791 -0.09667885
000020 d0 92 53 3d 58 78 82 bc e2 fe 94 bd 9c c7 ce bd
       0.051653683 -0.015926525 -0.072751775 -0.10096666
000030 de 42 8a 3d 50 2e 8b 3c 4e 4e f5 bd 20 b3 df bb
       0.06751035 0.016989857 -0.11977826 -0.0068267733
000040 08 82 0b bd 80 72 64 bb 00 68 fd 3c 64 5d 32 3d
       -0.034059554 -0.0034858286 0.03093338 0.043546095
000050 ca a6 f0 bd a0 31 95 3c 72 53 84 3d c0 25 ef bc
       -0.117505625 0.01821214 0.064612284 -0.029192805
000060 76 d7 c4 3d 74 c5 fa 3d ac 4d 0e 3d 2a ad f5 3d
       0.096114084 0.122446924 0.034742042 0.11995919
000070 1c ac 59 3d 0e 0a ab bd 60 07 a0 3d 5c 43 5a bd
       0.053142652 -0.08351527 0.07813907 -0.053286895
000080 cc b8 b7 bd b4 c8 e6 bd 20 6d 34 3c 30 60 e6 3d
       -0.08970794 -0.1126875 0.011012346 0.11248815
000090 6c 53 30 bd a0 fa a3 3c 5c 5a 26 3d 2e 4c 9e 3d
       -0.043048307 0.020016968 0.040613517 0.07729374
0000a0 f6 35 d8 3d 76 c8 87 3d b8 48 36 bd c0 93 67 bb
       0.10557167 0.06630032 -0.044502944 -0.0035335869
0000b0 24 69 f5 bd 7e 77 c6 bd e6 e8 8a bd 68 94 98 3d
       -0.119829446 -0.0969076 -0.06782703 0.07450181
0000c0 f8 bc b0 3c 00 2e cf b9 be e0 a8 3d 50 02 3c bc
       0.021574482 -0.0003951639 0.08245991 -0.011475161
0000d0 5e 1d c3 3d 4c bc f0 3d b2 de cf bd 52 50 cb 3d
       0.09527086 0.11754665 -0.10149898 0.09927429
0000e0 dc 0e a2 3d 90 79 68 bc 30 dd 19 3d 6a 06 ac bd
       0.079129905 -0.014189139 0.037564456 -0.08399661
0000f0 e4 d7 21 bd 64 b0 91 bd ce 0d b2 bd a8 03 ab bc
       -0.03951253 -0.07113722 -0.08694039 -0.020875767
000100 ac 27 ff bd 70 a2 bf bc da 28 a3 3d 4c f0 9d bd
       -0.12458739 -0.023392886 0.07966776 -0.077118486
000110 bc 8c 27 bd 80 5d a6 3b 74 62 5e bd e0 33 3c 3c
       -0.0409057 0.005077064 -0.05429311 0.011486977
000120 a0 ff eb bd c8 41 0a 3d 34 89 ef 3d 00 d1 fa 3b
       -0.11523366 0.03375414 0.11696091 0.0076543093
000130 ec 73 f9 3d b4 82 e1 bd 80 01 85 bd e8 84 1b bd
       0.121803135 -0.11011258 -0.06494427 -0.037968546
000140 b2 d7 da 3d 74 7f ea bd 68 20 ba bc f4 43 e5 bd
       0.10685672 -0.11450091 -0.02272053 -0.11194602
000150 38 f6 c4 3c 62 55 de bd 7c 3f d2 bd 28 54 9f bd
       0.024043187 -0.10856129 -0.10266015 -0.077797234
000160 dc a5 44 bd e2 8d a2 3d 30 9e a5 3c 58 c6 e6 bd
       -0.04800974 0.07937218 0.020217031 -0.112683
000170 68 11 f2 3d c0 40 26 bb 90 89 15 3d 44 31 84 bd
       0.11819726 -0.0025368184 0.036508143 -0.06454709
000180 a8 66 71 bd 90 ba bf bd 4c 4b c9 bd 12 ce 82 bd
       -0.05893579 -0.09361756 -0.09828815 -0.06386961
000190 aa 49 8d 3d 68 da 42 bd 10 3e d9 bd f4 09 16 3d
       0.06898816 -0.04757157 -0.106075406 0.036630586
0001a0 98 81 06 bd 96 78 b7 bd e0 4e cf 3d fa e3 ee bd
       -0.032838434 -0.08958547 0.10122466 -0.11664577
0001b0 52 f7 f8 bd 2c f5 93 3d 5e 41 8e 3d b8 f4 43 bd
       -0.121565476 0.07224497 0.069460616 -0.047840804
0001c0 52 f3 b4 3d fc 61 a8 bd 98 c6 70 bd f0 67 93 bc
       0.08835472 -0.08221814 -0.058783144 -0.017993897
0001d0 94 61 2b bd 7c 85 a5 3d 60 ef ed bd 3c 47 cf 3d
       -0.041841105 0.08082101 -0.11617923 0.10121009
0001e0 12 a1 92 3d a0 24 8d bd 56 ec 86 bd e8 4a 9f 3c
       0.07159628 -0.06891751 -0.06588046 0.019444898
0001f0 30 b8 1b bc 20 01 e3 bd 28 6f d1 3d c6 6e c9 3d
       -0.009504363 -0.11084199 0.102262795 0.098355815
000200 68 da cc 3d 58 1d 73 3d 36 36 b2 bd 6a b4 86 bd
       0.10002595 0.059354156 -0.08701746 -0.0657738
000210 a0 2a 58 bd d4 04 0e 3d 70 ff 89 3d a0 7d c1 bb
       -0.052775025 0.034672573 0.06738174 -0.0059048682
000220 20 e1 fb bd a0 43 a2 bd 5c d0 74 bd f4 52 ac bd
       -0.122987986 -0.07923055 -0.05976902 -0.084142596
000230 38 cc 83 3d e0 c5 b6 3b 48 b4 b6 bd e8 4d 9b bd
       0.06435436 0.0055777878 -0.08921105 -0.07583219
000240 fc 07 bb bd fe 59 b1 bd 3c 00 40 3d 46 7b 86 bd
       -0.09132382 -0.08659743 0.046875224 -0.06566481
000250 36 35 db bd 50 e8 13 3c 80 9a f5 bb 74 41 d4 bd
       -0.107035086 0.009027556 -0.0074952245 -0.10364047
000260 10 f2 09 3d 70 d3 2e 3c 30 be 85 3c 84 e7 60 3d
       0.033678114 0.010670528 0.01632604 0.05490829
000270 04 39 81 bd c2 b3 df bd 60 7a a5 3d 18 32 e8 3d
       -0.06309703 -0.10922958 0.08079982 0.113376796
000280 3a c3 ed 3d 30 a0 88 3d a8 4f eb 3d ec 84 10 3d
       0.11609502 0.06671178 0.114898026 0.035283014
000290 8c 5b df bd 50 4b 18 3d ca c2 c3 bd 22 28 f1 bd
       -0.10906133 0.0371812 -0.095586374 -0.11775233
0002a0 e4 1c 46 3d da 95 87 bd be f0 b8 bd 08 c3 f1 3d
       0.048367396 -0.06620379 -0.09030293 0.118047774
0002b0 44 2b 23 3d ec c6 5a 3d 68 d0 18 bd a8 76 3f 3d
       0.039836183 0.053412363 -0.037308127 0.04674402
0002c0 00 f2 00 bb 40 2a ef bc b0 61 c3 bc 6a fc bd 3d
       -0.0019675493 -0.029194951 -0.023850292 0.0927666
0002d0 60 0a af bd 44 da 1d bd 58 ef ba 3d 60 d5 be bb
       -0.08546901 -0.038538232 0.091276824 -0.005823776
0002e0 90 5c 7b 3d b4 02 59 bd 5e c2 ab 3d 0a fa b5 bd
       0.06136757 -0.052981094 0.08386682 -0.08885582
0002f0 16 45 89 bd 96 30 e1 bd a2 79 cc bd de 30 a1 3d
       -0.0670263 -0.10995595 -0.09984137 0.07870649
000300 da 86 a5 3d 0a 38 89 3d 84 6e 7d 3d 7c a5 ad 3d
       0.080823615 0.06700142 0.061872974 0.08478829
000310 9a b6 9b 3d 5e a7 96 3d a8 5b 7b bd fa d2 bf 3d
       0.07603188 0.073561415 -0.061366707 0.093664125
000320 a6 fe a9 3d 30 a0 1e 3d 90 76 b8 bc 56 cc df 3d
       0.083005235 0.038726985 -0.022517473 0.10927646
000330 80 19 08 bc c2 9e ee bd 9c 5d 40 bd c0 43 51 bb
       -0.008306861 -0.116513744 -0.046964273 -0.0031931251
000340 d0 62 73 3d 34 b8 09 3d 98 25 b1 3c f0 d2 d9 3d
       0.059420407 0.033622935 0.021624371 0.10635936
000350 46 5e a7 3d f2 69 91 bd 64 ad 39 bd b0 32 43 bc
       0.08172278 -0.071002856 -0.045331374 -0.01191394
000360 60 6d e9 bb e2 2f c3 bd 98 2e 09 bd ee e8 c1 3d
       -0.007123634 -0.09530617 -0.0334917 0.09468256
000370 8a 30 f8 bd e0 87 93 3c d8 61 cf 3c dc 8b 23 bd
       -0.12118633 0.018009126 0.02531521 -0.039928302
000380 a0 29 2e bd c4 4f 80 bd d8 a7 e8 bd 4c da e6 bd
       -0.042520165 -0.06265214 -0.11360139 -0.112721056
000390 a0 1c 88 3d 00 b8 75 bb 40 3c b2 bb 78 f0 a7 bc
       0.06646085 -0.0037493706 -0.0054393113 -0.020500407
0003a0 2e 22 f2 bd 38 11 a7 bc d8 14 ec bd 8c 48 7c 3d
       -0.118229255 -0.020393953 -0.11527413 0.061592624
0003b0 00 b1 33 bd f4 fd 2d bd 0c 55 34 3d 4e 79 af bd
       -0.043869972 -0.042478517 0.04402642 -0.08568059
0003c0 fa 96 a6 bd 20 10 8e bd c0 ef e6 bc c6 bf a1 bd
       -0.08134265 -0.06936669 -0.028190494 -0.07897906
0003d0 1c 0b ff bd b0 f4 64 3d 06 30 8b 3d f0 4a 53 bd
       -0.12453291 0.055897415 0.06796269 -0.051585138
0003e0 08 dc c4 bd d8 49 ad 3d d4 73 9b bd e2 7f c6 bd
       -0.0961228 0.0846135 -0.07590452 -0.096923605
0003f0 d6 e3 e6 bd 20 9f fd 3c 38 32 e8 3c 5e ae f3 3d
       -0.11273925 0.030959666 0.028344259 0.11898492

fc_trad.bias f4 [7]
000000 b2 3a f5 bd 00 8d 29 bd 8c e2 bd bd 38 34 59 3d
       -0.11974086 -0.041394234 -0.09271726 0.053028315
000010 e2 70 e7 3d 00 b9 a3 bd ec f3 92 bd
       0.113008276 -0.0799427 -0.07175431

fc_quan.weight f4 [7, 4]
000000 6c 98 cf 3e 04 5c 7b 3e 80 30 b3 3e 44 80 b7 be
       0.40545976 0.2454682 0.3499794 -0.35840046
000010 56 45 ef 3e c4 eb 39 be 16 84 8d be ac 25 2b be
       0.46732587 -0.18156344 -0.27639836 -0.1671359
000020 90 56 04 3d 22 71 95 3e 48 f1 02 be 60 e6 ac be
       0.032309115 0.29187876 -0.12787354 -0.33769512
000030 e8 a8 a5 3d ee 77 f6 be 3c ea cb be c8 45 dc 3d
       0.08088857 -0.48138374 -0.39827144 0.10755497
000040 7a dc e3 3e 58 f3 93 be 9e 1b 91 3e f6 66 9f be
       0.44504148 -0.28896594 0.28341383 -0.3113324
000050 f8 d2 2f be 50 e6 fd 3e a8 02 0b 3e b0 1c 58 be
       -0.17170322 0.49589777 0.13575232 -0.21104693
000060 d0 80 66 be 88 30 e1 3d 72 1e 9f 3e ea 7b c0 3e
       -0.22510076 0.10995585 0.31077915 0.3759454

fc_quan.bias f4 [7]
000000 b0 63 16 3d 52 33 81 be 68 40 7f 3e 16 58 d6 be
       0.036716163 -0.25234467 0.24926913 -0.4186408
000010 a0 77 83 bc d6 e9 eb be 48 f3 d6 bd
       -0.016048253 -0.4607684 -0.10495621

quantum_circuit.qlayer.q_weights.0 f4 [240]
000000 ab 13 6f bf a9 50 02 3f bc 7b fe be dc 77 bd 3c
       -0.93389386 0.5090433 -0.49703777 0.023128442
000010 34 ea 8f 3f 3c e9 08 3f 1e e2 10 bf 9a 73 cc be
       1.1243348 0.5348089 -0.5659503 -0.39931947
000020 42 71 35 bf f5 72 08 40 2b e3 a4 3f 30 59 18 3f
       -0.7087594 2.1320164 1.2881826 0.5951109
000030 31 c8 94 3f a4 79 89 3f 62 15 92 3e 5a 1a fd 3c
       1.1623594 1.0740247 0.2853194 0.030896354
000040 69 a5 e7 3d 29 2d cd bd a1 53 2f 3e ec a4 99 bf
       0.11310846 -0.10018379 0.17121746 -1.2003455
000050 46 a3 43 3c 68 c1 ed bf 9c f6 9f bf 7a 34 b4 bd
       0.011940783 -1.8574648 -1.2497134 -0.087990716
000060 ea 9c f3 bf e2 e7 d7 be 17 5b 12 c0 b0 4e 10 40
       -1.9032261 -0.421691 -2.2868097 2.2548027
000070 58 7f 3a 3e 8b d0 17 3d bb 8a e5 3f 35 5f fe be
       0.1821264 0.037064116 1.7932962 -0.49682012
000080 ef 3d 84 bd 46 e3 0a 40 b8 7b 23 3f 69 71 22 bf
       -0.064571254 2.1701217 0.63860655 -0.634543
000090 36 4e 5f 3f 4c 5e 85 bf a8 9b 3b be cc b2 a2 3e
       0.87228715 -1.0419402 -0.18321097 0.31777036
0000a0 7f c3 04 bf 9b 51 2b bf c7 b1 26 3f 8c d9 d1 bf
       -0.51860803 -0.66921395 0.65115017 -1.6394515
0000b0 1f b1 82 3e f4 88 04 3e b1 9f a5 3f b6 23 13 3e
       0.25525758 0.12942868 1.2939359 0.14369091
0000c0 b7 a1 2d bf 52 54 c8 be a1 fa 8c 3f 25 3f 90 3f
       -0.6782488 -0.3912683 1.1013986 1.126927
0000d0 f6 d0 ff 3c a8 fe 29 bf a0 6b 29 3e 03 9d 1c bf
       0.03122757 -0.664042 0.16544962 -0.6117708
0000e0 42 94 b8 3f 2a dc e4 3f 34 d7 2e bf c7 ef 77 bf
       1.4420245 1.7879689 -0.68297124 -0.96850246
0000f0 31 e2 35 bf df a5 e1 3f 13 f3 dd 3e e4 c0 39 3f
       -0.71048266 1.7628745 0.43349513 0.7255995
000100 f8 3b 4d bf 09 d6 97 bf f9 50 b5 bf 2e 35 bf bf
       -0.8016963 -1.1862193 -1.4165336 -1.4938104
000110 97 c8 d5 be db 63 ca 3d ef ad 76 3f 22 13 62 be
       -0.417546 0.09882327 0.9635915 -0.22077611
000120 9c ac 94 be 88 b3 ed be 8f be 62 3f cd ed 0a 40
       -0.2903794 -0.46426034 0.8857202 2.1707642
000130 58 b3 f3 3f df 81 d7 be 4a e0 05 40 ee 36 21 be
       1.9039106 -0.4209127 2.0918145 -0.1574361
000140 96 92 0c 3f 54 e5 84 3f 1a d2 bc bd 9b 9e 0e c0
       0.5491117 1.0382485 -0.09219761 -2.2284305
000150 79 c0 04 3e 85 ff 35 3f a4 96 cc bd 32 e2 83 3f
       0.12964047 0.71093017 -0.0998967 1.0303404
000160 13 1d b4 3f e3 eb e4 bf 01 5a 98 3f 50 18 1c bf
       1.4071373 -1.7884487 1.1902467 -0.609746
000170 d1 24 8c bd 93 5b 04 3d 28 5e b5 be 27 81 04 3f
       -0.0684296 0.032313894 -0.35423398 0.5175957
000180 1e a9 3f be 57 09 75 3f bb 13 5e be c0 0a 98 3f
       -0.18716857 0.95717376 -0.21687214 1.1878281
000190 cc e0 1e 3f cd 47 bf 3f d5 f3 8c bf 49 c1 88 bf
       0.6206176 1.4943787 -1.1011912 -1.0683986
0001a0 ac 6b d1 3f da d8 8b bd f5 15 a2 3e 64 47 14 bf
       1.6360984 -0.068284705 0.31657377 -0.57921433
0001b0 1a 6e 89 bf 12 8c b9 3d af 38 b5 3f 01 20 61 be
       -1.0736725 0.090599194 1.4157923 -0.21984865
0001c0 85 c0 92 be 9d 61 0f 3f 90 fd 47 bf cc 11 15 3f
       -0.28662506 0.5600832 -0.7812128 0.5823028
0001d0 ad 6b f4 bf aa 2f 3c bf d5 57 bc 3f bb 1f 80 bf
       -1.909536 -0.7351023 1.4714304 -1.0009683
0001e0 c2 7d b6 3e 54 00 9a 3f 75 76 94 be 24 7d ef be
       0.3564282 1.203135 -0.28996626 -0.46775162
0001f0 74 0a 2f 3f 3f a7 b3 3f ed 67 49 c0 4a 7c e1 bd
       0.68375325 1.4035414 -3.1469681 -0.110100344
000200 51 61 98 3f d0 7b e7 3f 8f 37 a9 be 7c d4 e3 3b
       1.1904699 1.808466 -0.330502 0.0069528203
000210 f8 7f 7e 3d 67 64 06 3e 39 bb f5 bf 1b 16 19 c0
       0.06213376 0.13124238 -1.9197761 -2.3919742
000220 56 5b 06 3f 05 49 fa bf 61 83 30 40 82 de 30 40
       0.5248312 -1.9553534 2.7580187 2.7635808
000230 f9 f8 9d 3e 0f e8 a8 3f 04 77 83 3f 3c 29 0a 3e
       0.30854014 1.3195819 1.0270696 0.13492292
000240 eb db 18 bf ae a6 c5 bf 8c 31 b5 3e 2c b3 17 c0
       -0.5971057 -1.5441492 0.35389364 -2.3703108
000250 b1 11 4f 3e 0b fd dd 3e ef 96 3d 3e 36 f2 31 bf
       0.20221592 0.4335712 0.18514608 -0.6951021
000260 ab ee 0c bf 33 cd 83 3f a0 32 18 3f 5a dc e3 3e
       -0.5505168 1.0296997 0.5945225 0.44504052
000270 ec 00 79 3e 07 ed b4 3f 76 2c 21 bf 5f 4b 0c be
       0.24316758 1.4134835 -0.62958467 -0.13700627
000280 e8 25 5f 3f 18 2f d7 bf d7 09 93 3f 25 9d 19 3f
       0.87167215 -1.6811247 1.1487378 0.6000541
000290 38 6c c5 bf 9a ea 9a 3f 24 73 85 be ff 36 1f bf
       -1.5423651 1.2102845 -0.26064408 -0.6219329
0002a0 bd e7 b7 be 6f 11 ab bf e0 e4 12 bf eb b2 f2 bf
       -0.3591899 -1.3364695 -0.57380486 -1.8960851
0002b0 0a 98 8d 3e 04 02 9c 3e 71 cb 54 bf b8 47 05 3f
       0.2765506 0.30470288 -0.83122927 0.5206256
0002c0 8e c9 60 3f 36 75 29 3f cd 91 b3 3f 44 33 14 40
       0.8780755 0.66194475 1.402887 2.315629
0002d0 79 6a 02 3f 4a 19 59 be 72 40 42 3e 0c f8 87 bf
       0.50943714 -0.21201053 0.18969896 -1.0622573
0002e0 0a f5 83 3f 27 5c 12 3f 37 5f ca 3f 7c 30 ce 3f
       1.0309155 0.57171863 1.5810307 1.6108546
0002f0 e8 58 e2 be 5c d3 74 3f f1 80 f9 be 36 f7 a0 3f
       -0.44208455 0.9563501 -0.48731187 1.2575443
000300 33 24 45 3f 62 50 0a bf 14 c8 b2 be fe b1 b7 3f
       0.7700836 -0.54028904 -0.34918272 1.4351194
000310 df cb 74 be db 0e 9f 3f 47 0f 00 be 87 16 09 bf
       -0.23905896 1.2426409 -0.12505828 -0.5355
000320 59 fd 03 bf 4f f8 47 3f 90 8b 8d be 02 c6 6b 3d
       -0.5155845 0.78113264 -0.2764554 0.05756188
000330 72 df 4e 3f 60 79 3e bf 2a 3c be be e9 95 99 bf
       0.808097 -0.74403954 -0.37155277 -1.1998874
000340 6d ac 52 bf 97 9d c8 be 6f b6 9d 3e 5e f9 fc bf
       -0.8229435 -0.39182732 0.30803248 -1.9763601
000350 71 8e 29 3f c6 db 80 3f cc 26 af 3e 03 ff c1 3f
       0.66232973 1.006707 0.34209287 1.5155948
000360 95 f9 ad 3f 9d 90 6d 3f 2c 9a 43 3f a6 f3 e2 bf
       1.3591791 0.9279879 0.7640712 -1.7730606
000370 95 73 11 3f 91 ce ef be 61 4c c0 be dc f5 b4 3f
       0.5681699 -0.46837285 -0.37558272 1.413753
000380 65 e9 e1 3d 05 b0 2b bd ee b4 9e be f7 91 b2 3d
       0.110308446 -0.041915912 -0.30997413 0.08719247
000390 fc 3a d5 bf 03 7b 6e bf 63 0d 6d 3e a6 6e a2 3f
       -1.6658626 -0.9315645 0.23149638 1.2690017
0003a0 7d 67 89 3e 30 94 b4 3f 95 f3 18 bf 41 94 09 3d
       0.26836768 1.4107723 -0.59746677 0.03358865
0003b0 a2 53 44 3f 05 4d 87 3e 24 8e ab 3f 6f 27 3e bd
       0.76690114 0.2642595 1.3402753 -0.046424326
