data_sets/lstm_model.pth (torch, 82531 bytes, 9 tensors)

lstm.weight_ih_l0 f4 [256, 8]
00000000: b431 243e 3272 f23d b0d0 943c 13e9 643e
00000010: 8f53 51bd c458 153e 60b7 573d c762 383e
00000020: b753 223e 79b7 43bd a65d 0f3e e0c4 393d
00000030: 743b 1b3e 096c 373d 5dcc 0e3e 9a31 e4bc
00000040: 4609 bb3d 6c32 563d a99c 0b3b 915a bf3d
00000050: 900c 0dbd ca61 7e3d 2e76 87bc 4c22 003e
00000060: 657f 47bd 7c79 4cbb 212a 1bbd 9cd2 2fbd
00000070: aa55 3e3d 0700 85bd 05c4 153e e638 f0bd
00000080: cc50 fb3b 97bd 813d 19e7 36bd c871 3e3e
00000090: 3de7 bd3c 17c5 393d bf46 e53c 3e10 82bd
000000a0: d0ee e43d 74f7 783d 4886 193e 72b8 323e
000000b0: 705c 173e faf5 3ebc 4cda 013e 6a97 ad3d
000000c0: 8d13 1b3e 4e62 073d ebde 00bd 4ceb d5bc
000000d0: 44fc 3fbd 83ca 423e ed4f 073d de4b 9e3d
000000e0: 28a9 1e3e edfa 733e f5ed 633e 070b 6fbb
000000f0: f0b5 0d3e f40c df3b 6c75 0d3e 638a a43d
00000100: 1463 b73d f5b7 87bb ab2c 4b3e 07b9 763c
00000110: 4339 8dbd c48a b33c 73a8 683e d84e dd3d
00000120: bc30 cc3d ec54 9abd 3b95 13bd 84ed 433c
00000130: d434 0dbd 7823 083d ecc0 1a3d bfa2 3c3d
00000140: 2fca 91bc 12e6 cdbc dedd d03d 0e09 873a
00000150: 6b4f 0e3e bf95 93bc b6e6 d73d ee09 fcbc
00000160: 3675 b3ba 7deb 923d 5a4a fa3c 8b0b ce3c
00000170: c20c 063e 4671 ef3d 3d78 a5bc c571 05bd
00000180: 2240 0e3e 79a3 3d3c 0a6d 273d 5292 cfbd
00000190: 2df1 4abd 5bc7 1e3e 68cc 8f3c a718 6ebd
000001a0: b534 b83d aa9e 97bd f631 5abd 661f bebc
000001b0: abd6 2eba 8784 6ebb 78d6 6f3e 263c 2b3c
000001c0: 7f55 c53d 981d e2bd b3c7 583c 3b26 05bb
000001d0: 83d2 773d 8922 90bd 539d 8abd d175 9fbd
000001e0: 896e 553d a368 c93b 1829 89bb 3cbb 63bd
000001f0: 6675 3ebd 4d20 6ebd 693b b1bc 1473 85bd
00000200: f5a5 213e efe1 d1bb 1bb9 0a3e a491 e23d
00000210: 2c50 73bd cb2e 453e b28a f1bc e3c8 c3b9
00000220: 9fe9 1abe efde d2bc c80d fd3d 2256 13bc
00000230: 0d3f 2c3e e0ed 20be 54a1 4f3e 0603 ebbd
00000240: 05a1 d43c 8d80 ba3d 79c8 e83d 7f48 073e
00000250: f5ac 483e 0f7f 9cbd 62e1 0e3e e2a4 39bd
00000260: eac5 d0bb 3557 3dbd 878c 653e 6322 20bd
00000270: df06 3c3e d047 073e 2c16 d13d 2e1c 94bd
00000280: 17cb 203e 6807 703d d8e2 673d f87a 2fbd
00000290: 6041 003e 0769 f93c 1552 a4bd f792 de3d
000002a0: 6613 153e 7f08 183b 3887 e6bc 3a6a bdbb
000002b0: 401d 033e 31b7 b23c d836 14bc 2282 2fbd
000002c0: 58f4 9dbd a48b 023e d625 363e 7402 09be
000002d0: dc84 293e fdfd ec3d 1ddb d13d 1812 4dbc
000002e0: d02e 393e bcfd 1a3e 0c80 053e a928 303d
000002f0: c246 553d 41e1 ca3d 1e2f 1abc f701 bf3d
00000300: 344f c13d 18dc 1b3e 530b 033a 9593 a73d
00000310: da4a 603d a0b9 c13c c17c 81bd c94d d23d
00000320: b5e7 fdbd 797f 11bc 7944 423e c1c4 fa3d
00000330: 7fe8 21bc e03f 0ebd 00ba 88bd 8209 a5bc
00000340: de50 0bbe 73fc 9e3d dfda b33d c04e 2b3e
00000350: 82c5 91be d1f8 36bc 220b c3bd 3ac5 2e3e
00000360: 4cee 123e b590 c23b 5941 233e 3377 183d
00000370: dc9c 5dbd d305 2d3e ecd4 4f3d f204 c23d
00000380: 6b3a f6bd 7c16 703d 6ce8 fd3c fdd4 08bc
00000390: cbb9 f6bd 0464 05be cd5b 31be da14 133e
000003a0: cbc9 ce3d f30e 593e aaa6 5b3c 9e2d ba3d
000003b0: 256d af3c b0f4 aebd 49eb 3d3d f44a a1bd
000003c0: 6f9f 933d b407 5bbd 9645 fbbc b047 b8bd
000003d0: d237 77bc 6c35 adbd 160d 8cbd 2f43 e7bb
000003e0: 611f 263d 7026 db3d 1b9c 4e3c e990 77bd
000003f0: a3a3 4a3d f443 833c 0f2c 863c 1613 19bd
0.16034585 0.11838187 0.018165916 0.22354536 -0.05110508 0.14584643 0.052665114 0.1800643
0.15852247 -0.047782395 0.14000568 0.04535377 0.15159398 0.044780765 0.13945146 -0.027855683
0.09132628 0.05229418 0.0021303094 0.09343446 -0.03443581 0.062104978 -0.016535845 0.12513083
-0.048705477 -0.003120034 -0.037881974 -0.042925462 0.046468414 -0.06494146 0.14625557 -0.117296025
0.007669544 0.063349895 -0.044653986 0.18598092 0.023181552 0.045353975 0.027987836 -0.06350754
0.11178362 0.060782865 0.1499263 0.17453173 0.14781356 -0.011655325 0.1268093 0.084761456
0.15144177 0.033052735 -0.03146259 -0.026113175 -0.04687144 0.19022565 0.033035208 0.07729314
0.15494215 0.2382619 0.22258742 -0.0036475079 0.13838935 0.006806964 0.13814324 0.08034208
0.089544445 -0.0041418024 0.19841258 0.015058762 -0.068956874 0.021916755 0.22720508 0.10806054
0.09970233 -0.07535729 -0.03603099 0.011958484 -0.03447421 0.03323695 0.03778164 0.046053644
-0.017796604 -0.02513412 0.10198568 0.0010302381 0.13897483 -0.01801574 0.105420515 -0.030766454
-0.0013691548 0.07173822 0.030553032 0.025151988 0.13090804 0.11691527 -0.020198936 -0.032579202
0.13891652 0.011574619 0.040875472 -0.1013533 -0.04954641 0.15505736 0.017553523 -0.05812898
0.08994428 -0.0740331 -0.053270303 -0.023208331 -0.0006669561 -0.003639491 0.23421657 0.010451352
0.09635448 -0.11040801 0.013231206 -0.0020316977 0.060503494 -0.07037837 -0.067682885 -0.077861436
0.052107368 0.006146507 -0.004185807 -0.055598482 -0.04649868 -0.058136273 -0.021634774 -0.0651609
0.15785964 -0.006405107 0.13547175 0.11062935 -0.05940263 0.19256131 -0.02948508 -0.0003734297
-0.15128182 -0.025741069 0.12356144 -0.008992704 0.16820927 -0.15715742 0.20276386 -0.11475186
0.025955686 0.0910655 0.11366362 0.13211249 0.19597228 -0.07641422 0.13953164 -0.04532326
-0.0063712494 -0.046225745 0.22416888 -0.039095294 0.18361996 0.13210988 0.10209307 -0.07231937
0.15702473 0.058600813 0.05661282 -0.04284188 0.12524939 0.030445589 -0.080234684 0.10867875
0.14558181 0.0023198423 -0.02814065 -0.0057804855 0.12804127 0.021815868 -0.009046279 -0.042848714
-0.077126205 0.12748581 0.17787871 -0.13379842 0.16554588 0.11571882 0.10246871 -0.012516521
0.18084264 0.15135854 0.13037127 0.043007527 0.052069433 0.09906245 -0.009410648 0.09326547
0.09438935 0.15220678 0.0004998941 0.08182446 0.054758884 0.023648083 -0.06322623 0.102687426
-0.1239771 -0.0088804895 0.18971433 0.12244559 -0.009882092 -0.034728885 -0.06676102 -0.020146135
-0.13605067 0.077629946 0.08781981 0.1672926 -0.28471 -0.011167721 -0.09523608 0.17067423
0.14348716 0.0059376606 0.15942897 0.037223052 -0.05410467 0.16896753 0.050740167 0.094735995
-0.12022861 0.058615193 0.030994616 -0.008351562 -0.12047156 -0.13026434 -0.17320175 0.14363423
0.10097083 0.21197109 0.013406435 0.09090732 0.021414349 -0.08542764 0.046366964 -0.07875624
0.07208144 -0.053474143 -0.03067283 -0.08998048 -0.015088992 -0.08457455 -0.068384334 -0.0070575695
0.04055727 0.10700691 0.012610461 -0.06044093 0.049472462 0.016023614 0.01637843 -0.037371717

lstm.weight_hh_l0 f4 [256, 64]
00000000: a818 9cbc ca8d 0fbd 6340 b2bd b49a fb3d
00000010: 45b9 263e 8276 ce3c 448d 33bd 73a0 37bc
00000020: 7482 153e 9f1d 163e 1300 0cbe 2f9e 8abd
00000030: 86d8 91bd 2533 e63c 0c41 13bd 322b abbd
00000040: ab52 1e3e 4f39 57bd 895c 1a3e 5fb1 42bd
00000050: a289 9d3a 0ddb 78bd 921b 07be ed98 303d
00000060: b586 32be e652 2f3e 7811 bbbd ee75 6ebd
00000070: f907 9b3c e50c 793d b627 e73c 74dd e03d
00000080: 4ebe d4bd b1c4 0f3e e9d0 5cbd 94bb 68bc
00000090: 7f99 31bd ec24 803e bbf2 5dbc b0fa 2ebe
000000a0: e693 d13c feb7 2bbe 24b2 b4bc e687 2a3d
000000b0: da06 943d 95c8 5abc a326 8dbe a7dd e5bd
000000c0: 1744 dabb 2ab4 8c3d 3024 633d 0c83 babd
000000d0: 6175 703d 5f61 96bd 1a02 c93c 4042 123c
000000e0: de8c 9dbd 6cbf f33d 7313 b3bd 28c5 043e
000000f0: c657 d63d f618 c43c ad8d ab3d b1ad 513d
00000100: 131e 26bd 5467 df3c 606d 943d 4316 103d
00000110: aa47 b53d 75c9 863e 199a 3f3d bb15 c4bc
00000120: 1882 d63c a28f 053b 9765 c03d 9773 053e
00000130: ce91 1c3d 0712 623c 46cc f43d 831b f2bd
00000140: 2597 cb3d e7bf a33d fe80 b43d 9720 3cbc
00000150: 4809 e0bd 8df6 6d3b 6fdf 74bd fb72 5c3d
00000160: 1ea2 be3d eff9 d1bd f4c6 513d ffb1 46bd
00000170: cf3f 7b3d 5236 fabd da38 c53d b4bd df3d
00000180: acc9 ac3c 9f85 153e e2fe 483c bdcc 01be
00000190: b646 903d 5aed cd3c a01e babd 8425 01be
000001a0: f96c 09bd 8aec 7cbd 69e8 d13d 20ec d93d
000001b0: bf92 dd3d f50f b83d fb97 91bc c2bd 9cbd
000001c0: b641 84bd e08c 0abd 5404 c23d eb6c b93d
000001d0: 32c5 c13d 959c 12bd 6c23 03be d8cc b5bc
000001e0: c663 b13d bbfd a73d 0a86 6a3d b490 f4bc
000001f0: 79dc 31be 216b 16bd f88a 74bd d501 d6bc
00000200: 9f53 753c 5ee0 553a ffce 97bd b2c2 db3d
00000210: 65f4 d8bb 2fc9 cd3d 2409 24bd ecbd e6bd
00000220: 5375 843d 1ceb a63d 5181 a1bd 12eb e03d
00000230: 50f9 20be 24ba bfbd c84a dfbd 96b6 8ebd
00000240: b820 793c ffbb 3ebd 7c9f d83d dc30 91bd
00000250: f61e 883b 1790 2abd 75aa 35bb b4ff c83d
00000260: 4406 9e3d 5c46 2dbd 7ec4 08be 452c 88bc
00000270: b143 bbbd 7202 123e 8fc1 b8bc 0239 f93d
00000280: 2d7e 713d 6b6d 0e3c 1030 05bd ecff 9abc
00000290: dfad 41bd 77bd 883d 7a7a 87bd 6250 ceba
000002a0: 1ca6 e5bd cc1b 09be 37a0 7fbd c14d bb3d
000002b0: a1c0 e43d 0d9d c5bc ffc0 06be e42d 17bd
000002c0: addf a4bd 6471 ab3c 766a b43c 6a17 dd3d
000002d0: 3157 f13c c663 01be ae36 0a3c 60be cfbc
000002e0: 20f3 25bd 333a 9cbd ea51 83bc 34af 10bd
000002f0: 24c2 e03d b873 033e 9b7e 09be d365 b5bd
00000300: bcbe bcbc aacc 6abd 258d 543c 1e95 7ebd
00000310: 7cab 833d 8bd5 4b3d 56ed 39bd a59d c6bd
00000320: 0856 703d 0fb1 393c 3ef8 09be fcbc 57bd
00000330: f2a9 a0bd 7d5c c3bd 2cbe 3f3c f76c e03c
00000340: c89a 2dbc 72b6 57bd 98e3 213c dd98 c8bd
00000350: 1765 c7bd f110 033c 75d0 cb3d 801a a2bc
00000360: 3890 593d 7739 26bd 2401 60bd d8c7 05be
00000370: e282 b03d dc02 083e 57c5 c53c 90fe cf3d
00000380: c2d0 4c3d d406 a23d 5fb4 5a3d b8d4 49be
00000390: f2d2 0cbe e86f 21bd 886a 063d 070a 06be
000003a0: d93a e4bd 2175 f9bd 9076 01be 5464 893c
000003b0: 2274 ff3c 91a0 81bd 0f1d 2e3e fe34 85bd
000003c0: 6c29 53bd 2bef f53d a982 ec3d d269 153d
000003d0: 3227 c3bd 9d53 aabd 9e9a 5f3c ec0b b23d
000003e0: d6fd 6d3d ef15 24bd 4f9e f7bd 37f2 e5bd
000003f0: 5ac8 33be 1a3c b03c 4c41 41be 258c b4bd
-0.019054726 -0.03504733 -0.08703687 0.12285367 0.16281612 0.025202993 -0.043835893 -0.011207688
0.14600545 0.14659737 -0.13671903 -0.067684524 -0.07121377 0.02810056 -0.035950705 -0.08357848
0.15461223 -0.052544888 0.15074362 -0.047532436 0.0012019167 -0.060755778 -0.13194111 0.04311459
-0.17434199 0.17121467 -0.09134191 -0.058217935 0.0189247 0.060803313 0.028217178 0.10979739
-0.1038786 0.14039876 -0.05391017 -0.014204878 -0.043359276 0.2502817 -0.013546641 -0.17087817
0.025583219 -0.16769406 -0.0220576 0.04163351 0.07227869 -0.013353487 -0.2756854 -0.112239175
-0.006660949 0.06870301 0.055454433 -0.091070265 0.05870569 -0.07342791 0.024537135 0.008926928
-0.07692884 0.11901745 -0.08743944 0.12965834 0.1046596 0.023937684 0.08376632 0.051191036
-0.040556025 0.02727095 0.07247424 0.03517748 0.088515595 0.26325575 0.04677782 -0.023936143
0.02618508 0.0020379801 0.09394377 0.13032375 0.038224988 0.013798243 0.119530246 -0.11821654
0.09940938 0.07995587 0.08813666 -0.011482379 -0.1093927 0.0036310286 -0.059783395 0.05382059
0.09308265 -0.10252749 0.051215127 -0.048509594 0.06134015 -0.12217392 0.09629984 0.10924855
0.021092258 0.14601754 0.0122678 -0.12675758 0.07044737 0.025137592 -0.090878725 -0.12611967
-0.03355119 -0.06174902 0.10249407 0.106407404 0.10819005 0.089874186 -0.017772665 -0.07653381
-0.06457846 -0.033825755 0.09473482 0.090539776 0.0946144 -0.03579386 -0.12806481 -0.022192404
0.086616084 0.08202692 0.057256736 -0.029854156 -0.1736926 -0.03672326 -0.059702843 -0.02612392
0.01497355 0.00081587385 -0.07412528 0.107304946 -0.006620931 0.10048138 -0.04004778 -0.112666935
0.0646769 0.08150312 -0.07885993 0.10982336 -0.15720105 -0.093616754 -0.10902935 -0.06968419
0.015205555 -0.046566006 0.10577294 -0.07089397 0.0041540815 -0.04164132 -0.0027720009 0.098143965
0.07716039 -0.042303428 -0.13356206 -0.016622672 -0.091437705 0.14258745 -0.022553233 0.121690765
0.05895822 0.008693079 -0.03251654 -0.018920861 -0.047284957 0.066767626 -0.066151574 -0.0015740509
-0.112133235 -0.1338951 -0.062408652 0.0914569 0.111695535 -0.02412274 -0.1315956 -0.036909
-0.08050475 0.020928092 0.02202342 0.107954815 0.029460521 -0.12635717 0.008435888 -0.025359333
-0.040515065 -0.07628288 -0.01603027 -0.035323337 0.109745294 0.12837112 -0.13427202 -0.08857312
-0.023040168 -0.05732409 0.012973105 -0.062153928 0.064291924 0.049764197 -0.045392357 -0.09698037
0.058675796 0.011333718 -0.13473603 -0.052670464 -0.078449145 -0.09539125 0.011703055 0.027395708
-0.010595985 -0.052664228 0.009880923 -0.09794781 -0.09736078 0.007999645 0.099518694 -0.019788027
0.053116053 -0.040582146 -0.054688588 -0.13064516 0.08618714 0.13282341 0.02414195 0.10155976
0.050003774 0.079114586 0.05339467 -0.19710052 -0.13752344 -0.039413363 0.03281644 -0.13089763
-0.11144037 -0.12180544 -0.12642884 0.016771473 0.031183306 -0.06329454 0.17003272 -0.06504248
-0.051553175 0.12008508 0.11548359 0.03647787 -0.0952896 -0.08316729 0.013647703 0.0869368
0.058103405 -0.04005998 -0.12090742 -0.112278394 -0.17556897 0.021513034 -0.18872565 -0.08815793

lstm.bias_ih_l0 f4 [256]
00000000: b3a8 163d 92c3 303d d771 87bd 8807 24bd
00000010: 8de4 5b3d 9cb2 1e3d 4665 be3d 592c 303e
00000020: c2eb 173e e0d8 b63b ee33 f73d 0744 d93c
00000030: f294 06bd ff3e 923d f66e 50bd 1bf5 583d
00000040: 50c9 a9bc 50f0 633d a15d 0e3c 24e0 703c
00000050: 09b7 a1bd 0359 3e3d 7293 313e 83de 4e3e
00000060: 412f e2bc 2370 1f3d 7da9 0c3d 2bbf 473e
00000070: 9cc5 9c3d 8ec9 6d3b 4a59 96bc edd5 143e
00000080: 89b6 343e 1141 19bd 98aa a7bb 1395 673d
00000090: 8488 c8bd 97e5 523d 42d3 213e f217 a43c
000000a0: 2ca9 fb3d eae0 4cbc 3539 df3d 3c08 993d
000000b0: ef50 a0bd 88b4 aa3c cd14 5a3e 3275 81bd
000000c0: 40c5 a23d bdf0 c43d 44b8 67bd aab6 033d
000000d0: 3284 363e b31c df3b 0743 b8bb 6265 6d3d
000000e0: 7a4b 6cbd b72e 923d 9949 bbbc 85e5 183e
000000f0: 837a c63d 1604 213c d0d4 863d 5dd2 ec3d
00000100: 27e3 babd 8146 bf3d 70ed a53d 9c45 8abd
00000110: 6c1f ac3d dad7 0b3e df6d 49bd 80df 613d
00000120: a295 3c3d e65b f1bb 2ea6 de3d de98 5bbc
00000130: 2e4e 0fbd a7ae 573d ac26 903d 1b03 df3d
00000140: 0312 e9bd 6c0b a9bc cf33 0abd d4c7 ffbc
00000150: 6ae2 21bc 43a7 7abd 2cd8 5cbd 5ad4 01bd
00000160: 1bd0 c9bd 19a9 543d 6fec 8e3d 9060 d2bc
00000170: caed ec3d 9196 8a3d 5c64 e7bd badb b23d
00000180: 8b36 ef3c 620b 003e 7543 3a3c 9091 4bbd
00000190: cf57 e83d eb4b 01be fa44 be3c b9f7 91bd
000001a0: ac7e 5fbc 2462 f13c fa7d bbbd b54f 39bd
000001b0: f279 cebc 5c0b 21bb 2a22 4e3d 5658 89bd
000001c0: 0fd5 ed3d 5420 233d 7b54 dd3c b397 3c3d
000001d0: 4d11 cabd 1175 9cbb a1d2 5fbd 43fc 0d3e
000001e0: 0207 fabc 7005 d3bd a712 9a3c ee9f 51bd
000001f0: 5fc8 e0bd 2e9d 88bd 3c6c db3c f770 8b3d
00000200: 2fbb e7bd ce9d f0bc f0f3 1dbd fe0a 19bd
00000210: e2da a73d 3819 883d aa25 093d 4098 96bc
00000220: 7309 273d 6b53 01bd 4ef0 aabc 4f42 903d
00000230: 49e7 11bd 85d6 ed3d ab57 df3d aebb 1f3d
00000240: ce56 3ebc 745b 62bd 8a4a 503d 195a da3c
00000250: 0846 03be df37 b6bd 5250 603b f7bd e13c
00000260: 9a3d 6b3d 9a26 b63d 1c72 543c e7e4 b93d
00000270: 6ef2 fe3d 174c bfbd 6f7d ac3d 4c01 67bd
00000280: 251b 8fbd e411 f53b dbb5 b2bd 0d6f 933b
00000290: a53e 91bb 6475 3b3d 68ac 8fbd 55a2 333d
000002a0: 32c2 933d 9637 1abd 08b1 833d 34b2 81bd
000002b0: 5f47 7f3d b725 c5bd 9dc5 f0bb dcb0 cfbc
000002c0: 2100 82bc ff01 e93d b121 d93c 159a db3d
000002d0: db9d 873d 8bb4 cfbc 640e e5bc 3d60 99ba
000002e0: 039b c2bd e57d 583d 69ea d23d ee6b 953d
000002f0: 2413 a83d 5566 ff3d 966b 3fbc c09d 2cbb
00000300: 632e 203c d394 9abd d60c 90bd 1134 a33b
00000310: 9afa b5bd 7ff2 fb3c f047 963d 1de4 053e
00000320: eb2b c6bc 9d79 72bd 067f a43d f971 2b3d
00000330: a34d a8bd e871 5fbd fb97 943d ce9f 0d3e
00000340: fb19 a83d e530 d03d 2508 063d 5b0e d03d
00000350: 6d69 c13d 5d16 e73c b5c2 033e 15bc da3d
00000360: 4ebe 963d cdf7 bfbd d4ac 2dbd 0bcf 5f3d
00000370: 73fd 72bd 9dd3 2e3e e5ec 4bbd 9b8f 9c3d
00000380: 96c4 543e b8a3 493d c848 db3b a5a8 7c3d
00000390: 8620 a9bd aee3 443e d182 0cbd 8b90 9bbd
000003a0: a4ad 1b3e 5fe4 3d3e 2cd1 f43c bcbf 01bd
000003b0: 3dfe 0f3e 61d6 f63c d97c 043e 4f89 083e
000003c0: 87ad 103e 916e 4f3d 467b 173e 6838 58bc
000003d0: 50db 013e 16b9 103e 182d 6cbd 4305 b8bd
000003e0: ced8 7c3d 6c68 8b3d 459e a33d ea1e 8e3d
000003f0: 8a5c 9f3e 9d70 093e 80d4 063c 8a6d 82bd
0.036781978 0.04315526 -0.0661351 -0.040046245 0.05368476 0.038744554 0.0929666 0.17204417
0.14836028 0.0055800527 0.12070452 0.026521696 -0.03285689 0.07140922 -0.05088707 0.052968126
-0.020725876 0.0556491 0.008689315 0.014701877 -0.07896239 0.046471607 0.17341402 0.20202069
-0.027610423 0.0389253 0.034341324 0.19506519 0.076548785 0.0036283466 -0.018353123 0.14534731
0.17647757 -0.037415568 -0.005116772 0.056538653 -0.09791663 0.051488485 0.15803245 0.02003095
0.12288126 -0.012504796 0.10899583 0.07472274 -0.07827937 0.020838037 0.21296997 -0.06321181
0.07947779 0.0961623 -0.056572214 0.032156624 0.17823866 0.006808841 -0.0056232247 0.057958014
-0.057689168 0.071378164 -0.022862243 0.14931305 0.09691336 0.009827634 0.065835595 0.11563561
-0.09125357 0.093396194 0.08101928 -0.06751558 0.08404431 0.1365656 -0.049177047 0.055144787
0.04604114 -0.0073656915 0.1087154 -0.013403146 -0.034986667 0.052656796 0.07038626 0.10889264
-0.113803886 -0.02063533 -0.033740815 -0.031223215 -0.0098806415 -0.06119467 -0.053917095 -0.031696655
-0.09854146 0.051919077 0.0697869 -0.02568081 0.11568792 0.067669995 -0.11298439 0.08733316
0.029200813 0.12504342 0.011368622 -0.049699366 0.11344873 -0.12626617 0.02322625 -0.071273275
-0.013641041 0.029465742 -0.091548875 -0.04524203 -0.025204632 -0.002457342 0.05032555 -0.06706302
0.11612903 0.039825752 0.027017822 0.04604311 -0.09866581 -0.0047746976 -0.05464423 0.13865761
-0.03052092 -0.103037715 0.018807722 -0.05117791 -0.10975718 -0.06670605 0.026785009 0.06808656
-0.11314999 -0.029372122 -0.038562715 -0.037364 0.081960455 0.06645435 0.033483185 -0.018383145
0.040780496 -0.031573694 -0.02086654 0.07043897 -0.03562096 0.11613182 0.10905393 0.038997345
-0.011617376 -0.055262998 0.050852336 0.02665429 -0.12819684 -0.08897375 0.0034227562 0.027556403
0.057431795 0.088940814 0.012966659 0.09076863 0.124485835 -0.09340685 0.08422362 -0.05639772
-0.06987599 0.0074789394 -0.087260924 0.0044993223 -0.0044325166 0.04576625 -0.07015306 0.043855984
0.07214774 -0.037650667 0.064302504 -0.06332818 0.062323924 -0.09626334 -0.007347776 -0.025352888
-0.015869202 0.11377334 0.026505323 0.10722748 0.066219054 -0.025354644 -0.027960964 -0.0011701655
-0.095022224 0.052854437 0.102986164 0.072959766 0.08206776 0.1247069 -0.011683365 -0.0026339144
0.009776684 -0.07547917 -0.07033698 0.004980572 -0.08885689 0.03075528 0.0733794 0.130753
-0.024190864 -0.05919801 0.0803204 0.04185674 -0.08217933 -0.05455199 0.072555505 0.13830492
0.082080804 0.10165576 0.03272261 0.10158988 0.094439365 0.028208906 0.12867244 0.10680405
0.073605165 -0.09373436 -0.04240115 0.05464081 -0.05932374 0.17072912 -0.049786467 0.07644578
0.20778117 0.0492284 0.006692026 0.06168427 -0.082581565 0.19227478 -0.034304444 -0.07595929
0.15202957 0.18544148 0.029884897 -0.031676993 0.14061828 0.03013152 0.1293825 0.13333629
0.14128695 0.050642554 0.14793119 -0.013197042 0.12681317 0.14133105 -0.057660192 -0.089853786
0.0617302 0.06807026 0.07989172 0.0693949 0.3112529 0.13421865 0.008229375 -0.06368549

lstm.bias_hh_l0 f4 [256]
00000000: 1209 223e 88cc c2bc 88d1 2b3d 7971 963d
00000010: 0917 e53c 44d3 3e3d 7eda debc c395 b83d
00000020: 45f3 f73d a2ee ac3c 687b 24bd 1ca8 91bd
00000030: 0434 d53d 07b5 843d 322c c0bd 5120 833c
00000040: 07f4 aa3b 88d9 173d 9960 813d 5f93 b93d
00000050: ec73 b5bd d868 da3d e4de 083e a099 d13d
00000060: 8458 f73d f33b 163e 8bda 1a3d 2af4 733e
00000070: c4d1 353d 14ae 38bc 2239 b73d f1b5 2cbc
00000080: 1383 973d 58a6 a5bd a4b9 8c3d ae82 6c3e
00000090: e785 bdbc da1e 1f3e c89e 983d d526 e63d
000000a0: 098f 143e 3a83 2d3e a3dc b53b 8293 bc3c
000000b0: 0735 a6bd 169f 3bbd 8b3e e63d 5e45 e03d
000000c0: 110d 593d fd6a bc3c 3ffa 0e3e 6fe8 8c3d
000000d0: ba4a 3e3e e0bc 0a3e 0759 0bbd e003 013e
000000e0: f40a 003e b01d 7d3c 0c27 b23d 9f0d a33c
000000f0: 1897 fd3d 2533 c4bc 6d3c 173d 82f4 f03c
00000100: fe48 cfbd cee3 b9bb 9a1e c43d 32e1 67bd
00000110: 9f09 29bd 2b4e 483d 6494 cabc 2828 623d
00000120: 7ac8 cdbd a294 323d 3bf9 093e e7ea d43c
00000130: c9cc 043e a9ef bdbd 72c7 7cbd 68e0 e3bc
00000140: 05ac f03d a13e d5bd 27a8 97ba 0a92 c7bd
00000150: 0f87 453d ec8b cbbd 6587 a9bd 74a2 2bbd
00000160: 7b19 7dbd ce54 a73d e2ee af3c e1c5 a6bd
00000170: 2d6d ed3d 1eba 9d3c 2693 963c 160d 16bd
00000180: 865a 27bd 874a 99bd faab 9bbd 7c5c 81bd
00000190: 668d ae3d e764 71bd d7b4 0bbe b90a 943d
000001a0: 7aac 87bc ffd7 42bd 6952 023e 2f74 bdbd
000001b0: 1025 c6bd 3c00 b23d 1be2 c03d 80d7 e5bc
000001c0: 5db5 d13d cc63 7bbd 3553 41bd 5a3d 25b8
000001d0: bc51 7cbd a8b9 9f3d f76a 77bd c32e f33d
000001e0: 7a0f b43d f44c 65bd 3703 6ebd 5ee1 743d
000001f0: e961 46bc 967d b7bd e615 173e 2ca1 fa3d
00000200: 8604 e53d e726 473d 85a4 c6bd 6079 47bd
00000210: 7ce1 b8bc 6d08 5f3c 35a5 af3d f126 c13c
00000220: 80f4 f8bd 39fe 60bd 8844 95bd df63 acbd
00000230: f4b9 593d f7b6 a63a f4cc d4bd 82e4 94bd
00000240: 484f babd a541 e5bd 3a1f 3f3d 450b 6dbd
00000250: 8fd7 04be b247 da3c ec07 a2bb e11b dcbd
00000260: e3a1 583c 550e 313c 8be2 2abc 039a 593d
00000270: abb4 fbbc c223 e3bd bda8 3d3d d0c0 ef3d
00000280: 0a56 003e 9edd 6c3d 034c e53d 9663 f93c
00000290: cd71 f1bd 8971 373d f552 c1bd f8be 0cbe
000002a0: 9651 e23c df7c ecbd f538 adbd da27 013e
000002b0: 4782 483d 3598 f73c ca17 89b9 5c3a 383d
000002c0: 78c1 8bbc 76f8 e8bc f442 81bc 813b 9c3d
000002d0: 609d 47bd 19b3 cbbc 9450 d63d 0f30 ab3b
000002e0: 791e 463d fa28 47bd f4bf 993d 9fb2 b3bd
000002f0: ff7d 7bbd 7664 dabd abbc 02be 475f ab3d
00000300: e30c 083e 39ef c43d 3733 983d 6fb2 c53d
00000310: 9d42 9a3d 5316 433e 3d5a 0dbc 53ae 973e
00000320: 1596 263e d4e4 873d d6b5 223c c22e 093e
00000330: b90e e83c 21c7 8fbd 746c c7bc d8bc 933c
00000340: 3d1e c93d 5534 943d bf5d 763d 99cf 1e3e
00000350: 3309 e73d 734e c73c ff47 a33c 70d3 033e
00000360: c976 b43c 99f0 91bd fa92 05bc 640c 643e
00000370: e3fd 04be 2be8 973d f75f 173d 51eb 653b
00000380: a203 353e 65d2 07bd 3d26 51bd c961 ae3c
00000390: 421f af3d a3a3 363e edb9 993d 39a0 9f3c
000003a0: 43e3 9fbd c2b5 e63d a3da 84bd 7767 b43d
000003b0: 0aeb 62bc f972 e3bb 4f1f 8e3e 6d50 2abd
000003c0: e7f4 66bd 9e08 2abd 7186 f43c fd84 033c
000003d0: d5e3 9aba 23f4 983d 3972 083e f6f7 bcbc
000003e0: 6749 3abd f35d f43d 8395 e0bc b55c 063c
000003f0: 43c9 c03d f4ff 983d 8fe1 233e d747 323e
0.15823773 -0.023779169 0.04194787 0.07345862 0.027965086 0.046588197 -0.027203795 0.0901294
0.12106947 0.021109883 -0.040156752 -0.071121424 0.10410312 0.06479841 -0.093834296 0.01600662
0.0052170786 0.03707269 0.06317253 0.09061312 -0.08860001 0.106645286 0.13366276 0.1023438
0.1207743 0.14671306 0.037806075 0.2382361 0.0443895 -0.011271972 0.08946444 -0.010541425
0.07398047 -0.08088368 0.06871346 0.23096725 -0.023135139 0.15539113 0.0745216 0.11237875
0.14507689 0.1694459 0.0055499836 0.023019556 -0.08115583 -0.045806013 0.11242398 0.10950731
0.052990977 0.023000235 0.13962649 0.06880271 0.18583193 0.13548613 -0.03402045 0.12599134
0.12504178 0.015448973 0.08698854 0.019903956 0.123823345 -0.023950169 0.03692286 0.029413465
-0.10121344 -0.0056729084 0.09576149 -0.056611247 -0.04126894 0.04890267 -0.024728961 0.055214077
-0.100480035 0.04359878 0.1347398 0.025990916 0.12968744 -0.09274227 -0.061713643 -0.027816966
0.1175156 -0.10412336 -0.0011570499 -0.097446516 0.048224505 -0.09938797 -0.082777776 -0.041902974
-0.06179188 0.08170472 0.021476213 -0.08143211 0.11593089 0.019253787 0.018380713 -0.036633573
-0.040857814 -0.07484918 -0.07601161 -0.06316468 0.08523063 -0.05893412 -0.13643204 0.07228608
-0.016561735 -0.04756927 0.1272675 -0.09250676 -0.09675038 0.08691451 0.09418126 -0.02805686
0.102396704 -0.06137447 -0.047198493 -3.9396204e-05 -0.061601385 0.07799083 -0.060404744 0.118741535
0.087920144 -0.05598159 -0.058108535 0.05978524 -0.012108305 -0.089595005 0.14754447 0.12237772
0.111825034 0.048621085 -0.09699348 -0.048699737 -0.022568457 0.013612849 0.085764326 0.023578139
-0.1215601 -0.054929946 -0.07288462 -0.084174864 0.053155854 0.0012719323 -0.10390654 -0.07270147
-0.09097153 -0.11194161 0.04666064 -0.057872076 -0.12972854 0.026645515 -0.004944792 -0.10747505
0.013222191 0.01080664 -0.010429989 0.053125393 -0.030725798 -0.11090805 0.0463035 0.11706698
0.12532821 0.057828538 0.11196139 0.030442994 -0.11789284 0.04478601 -0.09439651 -0.13744724
0.027626794 -0.11547255 -0.08458129 0.12612858 0.048952367 0.030223945 -0.000261484 0.04497753
-0.017060027 -0.028438788 -0.015778996 0.07628537 -0.04873407 -0.024865674 0.10464588 0.005224235
0.048368905 -0.048623063 0.07507315 -0.08774304 -0.061399456 -0.10663693 -0.12767284 0.08367782
0.13286166 0.096159406 0.074316435 0.09653174 0.07532237 0.19051485 -0.0086274715 0.29625186
0.16268189 0.066354424 0.009931048 0.13396743 0.028327333 -0.07020403 -0.024343707 0.018034384
0.098202206 0.07236544 0.060147997 0.1550888 0.112810515 0.0243294 0.019931791 0.12873626
0.022029297 -0.071259685 -0.008152718 0.22270352 -0.12987475 0.074173294 0.036956754 0.0035082886
0.17677167 -0.033159632 -0.051061857 0.021286862 0.08550884 0.1783586 0.07506166 0.01948558
-0.078070186 0.11265136 -0.06487014 0.08808797 -0.013849983 -0.006941196 0.27758262 -0.041580606
-0.0563859 -0.041512124 0.029849263 0.008027312 -0.0011817167 0.074684404 0.13324822 -0.023067456
-0.04548016 0.11931982 -0.027415043 0.008200814 0.094133876 0.07470694 0.16004013 0.17410217

fc_trad.weight f4 [8, 64]
00000000: 535d b5bd 1adc fbbd c0ed a93d 0e47 e63d
00000010: 1ad7 d0bd b2fc 5ebe fd1a cb3d a788 45be
00000020: a04d efbb 3623 52bc 0a91 95bd ee6b 1a3e
00000030: 668a 89bc bdba cd3d 6069 0bbe ce43 abbd
00000040: 5aeb e13d d615 ee3d 4f03 353c a14f ccbd
00000050: d167 dabd dee0 913e 7883 c43d 9006 663e
00000060: 37da 2cbd 2976 23bd 7650 ac3d 6754 8abe
00000070: 65aa 78bd 78d3 743d 2380 d03d ff6d ae3d
00000080: 97ea b3bc eef5 e43d 1e87 4fbe da6a 80be
00000090: 04c4 96bd d562 9bbd 2d17 53be 4d29 de3d
000000a0: e4b0 afbd 247f 933d 4d0a 443d b353 213e
000000b0: 447a ae3d 0856 0f3c f38d 963e 49c4 34bd
000000c0: 56f2 e83c 9d1c d63d bd6e 803d fe21 4b3e
000000d0: 761a 8a3d c7ce ba3d d473 373e c0a8 243d
000000e0: fe49 dabd 27a2 00bc 8dea 84bd 7298 acbd
000000f0: b1b1 b03d 743e 333e 63ad 3d3e e1ca 963d
00000100: f6c0 9c3d f46e c8bd 1c77 173d e2ef fb3d
00000110: cd3b 053d 8610 9a3d 3952 403e 6615 cdbe
00000120: 1b41 e5bb dee9 81bb 2873 e4bd c084 d83d
00000130: 9373 8abd 97f3 dfbb 6d5a c83b 62e3 b3bd
00000140: 34f0 dd38 a2fc bdbd c09f ab3d da3b 1f3d
00000150: b176 823c 4326 57b9 939e 9cbd b2e1 fbbc
00000160: c697 9cbd 21ea 89bc 2ec7 a3bc 3e16 9e3d
00000170: 5432 7abc c495 b43d e5c9 2bbd 2779 cabd
00000180: 2d20 b9bd d0dc 5b3d 7666 bdbd a749 e33c
00000190: 4623 25bd 64fe 94bd ba8a 273e 93c1 f23d
000001a0: 375b 03be 014c 27be e441 c23d 1f10 013e
000001b0: a1e1 d9bd 14c3 183d 45b0 26be ff33 09be
000001c0: 445c e6bd d6f8 f93c 18d4 fd3d 8d9c f03d
000001d0: 99be 48be 524c 043d 6e76 353e d0cc be3d
000001e0: a213 173e b7ea 46bd fa13 4a3c aad2 e93d
000001f0: 9ae5 eebe 9c99 5bbc eba0 b23e 1cbf 8e3d
00000200: f115 6e3c 01a8 763c ac2e c6bd 11f2 23bd
00000210: e8c5 9a3d 15c8 43be 3242 d33d 35ea 02be
00000220: abaa a83d 349f 013e a955 a7bb 5886 dfbc
00000230: a4a9 f1bd eb62 59bd 9b00 1bbe e3d6 3f3d
00000240: 2a4a 523c 0de0 d0bd 96e8 313d 369f 233e
00000250: 8523 b0bd 9760 95bd 18c0 57bd eba1 b03d
00000260: f090 1d3d a975 c13d 4e50 1ebb 2491 a6bd
00000270: 66ce e53c bfc0 c9bd 1a76 86bd c5fe 9b3c
00000280: 90bf ad3e b7cb 50b9 5e77 04be 7d8b 863e
00000290: e4c2 dcbd da95 07bd f54b 47bd c1d9 e5bb
000002a0: b021 49bd 8e3d 4d3d b4b5 0fbe 7223 f43d
000002b0: 32d1 ea3c 7845 24be 6b2d 39be 1d73 e43c
000002c0: 9816 e7bd c4dc 913d 2eee 693d f180 19be
000002d0: 8cc3 b73d f969 3b3d 58d3 013e 6e01 03bc
000002e0: 40bd 4bbe 8c89 b93d e38a 0cbe 9635 263e
000002f0: fca1 b73e 0dfb 2c3c 8908 133d 71cf 1e3e
00000300: 99aa 34be 7d31 4bbd 6411 e7bd ecfe 4e3d
00000310: f67e ef3d 0a85 a53d bf17 29bd a19e 77bd
00000320: 7a3d 3a3e 1078 093e 22b4 bdbd 5473 063e
00000330: d570 41bd 58d1 c4ba 3fc3 a1bd 9e1a 07bd
00000340: 678e eb3d 41bc 293a 99e1 75bd ef25 203d
00000350: f20e 0fbe 29a8 82be 32b3 583d a86e 6c3d
00000360: 52ae 1ebe 2cdc fe3d 26ab 02be 1e89 3fbd
00000370: 1b26 bc3d 55a6 97bb bc36 0bbd e2e0 c1bc
00000380: 3a0d 98be 7688 d13d 3f7d 003e 8409 6ebd
00000390: 536d 9dbd 6d0a 8b3e 0bdb ebbd a5fe 23bd
000003a0: ac91 21be 294e c2bd 8d27 b8bc ca92 063e
000003b0: a3da 563d 0ccd d4bd ec4e 3e3e 8e3d 96bc
000003c0: 3fa5 acbd f459 d2bd d74b 933c ece3 bebd
000003d0: 4799 7ebe 5a20 08be 7d92 01be 4fde 7dbd
000003e0: af18 7cbc 8c82 48bc 251c de3d d650 90bd
000003f0: 7bf7 8f3e 0d99 1d3e fcb7 8abd ba6c 173e
-0.08855691 -0.122978404 0.082973 0.11244021 -0.10197277 -0.21776083 0.09917257 -0.1929041
-0.007302955 -0.012825778 -0.07303055 0.15080234 -0.016789626 0.10045383 -0.13614416 -0.08362542
0.11031218 0.116252586 0.011048152 -0.099761255 -0.10664333 0.28491873 0.09595388 0.22463441
-0.042200293 -0.03990761 0.08413784 -0.2701752 -0.060709376 0.059771985 0.1018069 0.08517074
-0.021962447 0.1117972 -0.20266387 -0.2508152 -0.07361606 -0.0758721 -0.2061431 0.10847721
-0.08578661 0.072019845 0.047861386 0.15754585 0.08519414 0.008748539 0.29405174 -0.044132505
0.028435867 0.10454676 0.06271122 0.19837186 0.06743328 0.09121471 0.17915279 0.040199995
-0.10658644 -0.00785116 -0.064900495 -0.08427514 0.08627642 0.17504293 0.18523173 0.07362915
0.07653992 -0.09786788 0.036978826 0.123016134 0.032527734 0.07522683 0.18781365 -0.40055388
-0.0069962866 -0.0039646467 -0.11154777 0.10572195 -0.06760325 -0.006834458 0.006114295 -0.08783604
0.000105828425 -0.092767015 0.08380079 0.03887544 0.015925737 -0.00020518251 -0.07647433 -0.030747268
-0.07646136 -0.016835274 -0.019992437 0.07719086 -0.015270788 0.08817628 -0.04194059 -0.09886389
-0.0903934 0.05367738 -0.092480585 0.027745081 -0.040316842 -0.07275084 0.16361514 0.118533276
-0.12827764 -0.16337587 0.09485224 0.12603806 -0.106387384 0.037295416 -0.16278179 -0.13398741
-0.11248067 0.030514162 0.12393969 0.1174861 -0.19603957 0.032299347 0.17720959 0.09316409
0.14753583 -0.048563685 0.012333864 0.11417134 -0.46659547 -0.013403323 0.34888396 0.06970045
0.014531598 0.015054704 -0.09676871 -0.040025774 0.07557279 -0.19119294 0.1031536 -0.12784655
0.08235677 0.12658387 -0.005106647 -0.02728574 -0.117999345 -0.05307285 -0.1513695 0.04683579
0.012835065 -0.10198984 0.0434347 0.15978703 -0.08600525 -0.07293814 -0.05267343 0.086246334
0.0384683 0.0944627 -0.0024156752 -0.08133152 0.02805252 -0.098512165 -0.06565495 0.019042382
0.33935213 -0.00019912315 -0.1293616 0.26278296 -0.1077936 -0.033101894 -0.048656423 -0.0070144837
-0.049104393 0.05010753 -0.14034158 0.11920823 0.028664205 -0.16042125 -0.18083732 0.027886922
-0.11283606 0.07122186 0.05711191 -0.14990593 0.089728445 0.04575536 0.12678277 -0.007995946
-0.19896412 0.09059438 -0.13724856 0.16231379 0.35865772 0.010557902 0.03589681 0.1550882
-0.17643203 -0.049607743 -0.11282614 0.05053608 0.11694138 0.08082016 -0.04128241 -0.060454015
0.18187514 0.13424706 -0.09262873 0.13129932 -0.047226746 -0.0015016003 -0.07898568 -0.03298437
0.115017705 0.00064748904 -0.0600296 0.039098676 -0.13970545 -0.2551892 0.05290527 0.057722718
-0.15496185 0.12444338 -0.127606 -0.046761625 0.091869555 -0.0046279826 -0.033987746 -0.023666803
-0.2969759 0.10231106 0.12547778 -0.058114544 -0.076868676 0.27156392 -0.115163885 -0.04003777
-0.15778226 -0.09487564 -0.022479797 0.13141933 0.052454602 -0.10390672 0.18584794 -0.018339898
-0.08429956 -0.102710634 0.0179805 -0.093208164 -0.24863158 -0.13293591 -0.12653537 -0.061979588
-0.015386744 -0.012238156 0.10845212 -0.07046668 0.281185 0.15390415 -0.067733735 0.1478757

fc_trad.bias f4 [8]
00000000: fdf1 573d bb57 3c3c cb42 5fbd c315 9ebd
00000010: ebc8 fb3b 6323 363d c49d 863b abcc e73c
0.052721012 0.011495526 -0.054507058 -0.077189945 0.0076838634 0.04446734 0.0041081626 0.028295835

fc_quan.weight f4 [8, 4]
00000000: 2a7a 89be 0429 66be 1802 8dbd 905b 553e
00000010: f6e0 eabe 48a4 593e 22cc 8f3e 62f3 fcbe
00000020: 58e3 563e 5075 9a3d 90d7 4b3e 701d 8ebe
00000030: fc51 a13e fcd4 93be 0cbe 5ebe f8cb 243e
00000040: c88d dcbd 4a6c b23e d02b 6dbd 6a96 c7be
00000050: aa56 d5be c0db d23c 507e c7be e8d9 e43e
00000060: 9e8a de3e 7c1d 9a3e ae55 c3be 0866 ebbd
00000070: 6ae1 bc3e 688a d03d e01f 213d 20e8 1ebd
-0.26851016 -0.22476584 -0.06885165 0.2083571 -0.45874757 0.21254075 0.28085428 -0.49404436
0.20985162 0.07541907 0.1990645 -0.27756834 0.31507862 -0.28873432 -0.21752185 0.16093433
-0.1076923 0.34848243 -0.05790311 -0.38981944 -0.41667682 0.02573955 -0.38963556 0.446975
0.43465132 0.3010062 -0.38151306 -0.1149407 0.36890727 0.10182649 0.03933704 -0.03879559

fc_quan.bias f4 [8]
00000000: 6882 8cbe 60e2 22be 8c39 953e a875 c7bd
00000010: 702d 09be c453 7c3e f471 76be f8eb 97bd
-0.27443242 -0.15906668 0.29145467 -0.09739238 -0.1339624 0.24641329 -0.24066907 -0.07418054

quantum_circuit.qlayer.q_weights.0 f4 [240]
00000000: 5f10 bc3f 2aab 81bf a6ba 8b3f 998f 183f
00000010: ae6f cdbf 3aea d43e 9cc5 c0bf 55f1 66bf
00000020: ac6a d53f 3864 513f f703 98bf a010 f5be
00000030: 269c b9be 3ae9 16bf 4354 2740 6318 943e
00000040: 2815 f5bf 24c1 943f 5348 9c3f 13c8 da3f
00000050: b020 04bf 12ca 24bf 06c5 9a3e e1a4 5ebf
00000060: e1ce 1d3f ba56 f3bd e1a4 1bbf 4e60 053f
00000070: 0ade 903f d26d 6d3e bc07 9ebf 8856 373f
00000080: 0521 823f 6e7a 52bf 3f49 e63e 9c35 a9be
00000090: a6d9 a63d 6af3 a3bf e908 d03f 6f77 dcbe
000000a0: b655 84be 2cb3 ff3e 33a5 edbe 22c8 443e
000000b0: 9997 ea3e 06f4 d0be 8cb7 813c f8cd 84bf
000000c0: 7aa8 aebf 88f8 bd3f 088e ccbf def7 08c0
000000d0: a0db 073f 8df5 77be e311 823f 035e 12bf
000000e0: aea4 b0bc ba7a 29bf abde 0dbf a33e 59bf
000000f0: 2479 9e3e a988 82bb 64ae 3a3f 5c9b 123f
00000100: 5e97 ecbf 2201 8cbe 0744 903f 0cd4 273f
00000110: 61c8 69be 6987 30bf 698a a7be 7317 25bf
00000120: f8bc 0bbf 568c 893f 3ab0 8c3f 9918 ab3f
00000130: 61ff f1bf e326 a63f 48ef c33d 0709 68bf
00000140: c9b7 f03f af47 a33f cbda d33e 873c 8f3f
00000150: 5ea1 203f 1bd9 ef3d 8fbb 463f da91 20bf
00000160: 124a b7bd 7cf4 8c3f 5e65 c63f 4d08 0dc0
00000170: 0362 973f 7e1c 4dbf 197b b43f 0a1b 66bf
00000180: 575f 8ebf 2477 8a3f c5e3 be3e 6192 c23f
00000190: 0d5b 473f ebd0 08bf 8746 f13d a77d 1c3f
000001a0: 7f50 0140 005e 8ebf 1b39 0f3f 1e76 9f3e
000001b0: 998b 5f3f 8004 5abf 9ad4 2a3d 6ec3 403a
000001c0: 06c1 97bf a7f6 96bd a1a5 ac3f 2cd3 563f
000001d0: 533e 1e40 5555 31be 6c72 4fbe 987b 823e
000001e0: 1e80 443e 4cfb 693e 041b b9bd 6663 303f
000001f0: 6334 9b3e 34b5 59bf 93a9 433e c239 22bf
00000200: 2ce2 8f3f 6aaa 99be 0d96 68bf 2efd 563f
00000210: 33b8 81be ba70 72be 2f24 833e 2de1 94be
00000220: ec0e 33bf 793f bbbf 2406 e13f e987 2bbf
00000230: 0336 49bf 0282 58bf 39d9 6cbf 31ce 21be
00000240: eeff 70bf ffdd d6be 4f0a 9fbe 70e2 c03f
00000250: 211d ea3e 48bb 143e bc6d 173e 64c8 0540
00000260: 6330 173f 9118 0040 4dba b73f 7d8f 933f
00000270: 6c00 d7bf 6802 16bf 8989 753f 451c 493e
00000280: d119 473f ad9c 963f 4547 02bf fb90 733e
00000290: 33c3 b03e f235 05bf 4ee8 aebf 6334 b33f
000002a0: 8cce 92bf 0fd5 b43e 6fad f1bf 5590 abbf
000002b0: 68f8 7ebf 00ec dd3f d81d a4bf 36ac 673f
000002c0: 68a7 04c0 d006 033e a68d 9a3f ed3b 00bf
000002d0: 7b1e 333f 7fd7 21bf dff8 ac3f c3de 39bf
000002e0: 30ab 10bf 18cb 9d3f d79a c23f 0dc2 aabf
000002f0: e928 c73e c56f cebf 3f60 a33f 8bcc b13d
00000300: 4c76 cebd 3ef9 a1bf 2564 1840 97de 92be
00000310: 7795 5f3f 0d59 5d3f 410d 123d c743 a4be
00000320: d886 5f3f 7772 843f a4d5 85bf 53d0 dbbe
00000330: 1549 c0be fbd4 143f ffad b43e bc6f e9bd
00000340: 03b5 8fbe a155 353f 5ab8 93bf 5914 78ba
00000350: 9e61 043e c725 5ebf 6b58 4bbf a00f 8cbf
00000360: 3490 be3e 5c7f b9bf c163 5dbe 3500 053e
00000370: 2b40 94bd 555a 6b3f 57b6 9f3f 17e7 b03e
00000380: cae9 043f 27b6 903d b03d 92be 9eea 9cbe
00000390: 2c70 113e e92d d5bf 3b27 f1be 18b6 4ebf
000003a0: 0f65 5e3f 2847 8fbf 463e 45bf d922 e2bf
000003b0: c8a2 9a3f 6166 09bf 02ae 973f 0601 db3f
1.4692496 -1.013036 1.0916336 0.5959411 -1.6049707 0.4158495 -1.5060306 -0.90211993
1.6673179 0.81793547 -1.187621 -0.47864246 -0.36251944 -0.58949625 2.614518 0.28924856
-1.9147081 1.1621442 1.2209572 1.7092308 -0.5161238 -0.64370835 0.30228442 -0.86970335
0.616438 -0.11881776 -0.6079846 0.52100074 1.1317761 0.23186424 -1.234611 0.7161641
1.0166327 -0.8221806 0.44977757 -0.33048713 0.08146982 -1.2808659 1.6252719 -0.4305987
-0.25846642 0.49941385 -0.464151 0.1921697 0.45818785 -0.40811175 0.015834592 -1.0375357
-1.3645165 1.4841471 -1.5980844 -2.1401286 0.53069496 -0.24214764 1.0161709 -0.571747
-0.0215629 -0.6620289 -0.5541789 -0.848612 0.30951798 -0.0039835763 0.7292235 0.5726831
-1.8483694 -0.27344614 1.127076 0.6555793 -0.22830345 -0.6895662 -0.32722786 -0.64488906
-0.5458522 1.0745952 1.099128 1.3366882 -1.890606 1.2980617 0.09567124 -0.90638775
1.8806087 1.2756251 0.41377863 1.1190346 0.62746227 0.117113315 0.7762994 -0.6272255
-0.08949675 1.1012111 1.5499685 -2.2036316 1.1826786 -0.801216 1.4100066 -0.8988501
-1.1122845 1.0817609 0.3728315 1.5200921 0.7787331 -0.53443784 0.1178103 0.6112923
2.020538 -1.1122437 0.5594651 0.31144804 0.87322384 -0.85163116 0.04170666 0.000735334
-1.1855781 -0.07371264 1.3488046 0.8391597 2.472554 -0.17317708 -0.20258492 0.2548492
0.19189498 0.22849768 -0.09038356 0.6890167 0.30313405 -0.8504212 0.19107656 -0.6336938
1.1240897 -0.30012828 -0.9085396 0.8398007 -0.25335845 -0.23675814 0.25613543 -0.29078045
-0.69944644 -1.4628745 1.7579999 -0.6700426 -0.7859804 -0.84573376 -0.92518955 -0.15801312
-0.9414052 -0.41966245 -0.31062552 1.5069103 0.4572535 0.14524567 0.14787954 2.0903559
0.5905821 2.0014994 1.435373 1.1528164 -1.6797004 -0.5859742 0.95912987 0.1963969
0.7777377 1.1766564 -0.5089 0.23785774 0.34523925 -0.5203544 -1.3664644 1.4000362
-1.1469283 0.353188 -1.8881053 -1.3403422 -0.9959779 1.7337646 -1.2821608 0.9049715
-2.0727177 0.12795568 1.2074478 -0.5009144 0.69968385 -0.63219446 1.351345 -0.7260553
-0.5651121 1.2327604 1.5203503 -1.334047 0.388984 -1.6127859 1.2763747 0.086815916
-0.10081157 -1.2654188 2.3811123 -0.28685448 0.8733744 0.86464006 0.03565717 -0.3208296
0.8731513 1.0347432 -1.0455823 -0.42932376 -0.37555757 0.5813748 0.35288998 -0.11398265
-0.28067788 0.70833784 -1.1540635 -0.0009463481 0.12927863 -0.86776394 -0.7943179 -1.0942268
0.37219393 -1.4491992 -0.21620084 0.1298836 -0.072388016 0.9193471 1.2477521 0.34551308
0.51919234 0.07065993 -0.2856269 -0.3064775 0.14202946 -1.6654636 -0.47100243 -0.80746603
0.86872953 -1.119359 -0.77048147 -1.7666885 1.2080927 -0.5367184 1.1849978 1.7109687
