data_sets/lstm_model.pth (torch, 82531 bytes, 9 tensors)

lstm.weight_ih_l0 f4 [256, 8]
0	0x3e2431b2	0.16034582
1	0x3df27235	0.118381895
2	0x3c94d0b6	0.018165927
3	0x3e64e912	0.22354534
4	0xbd51539b	-0.051105123
5	0x3e1558c8	0.14584649
6	0x3d57b75f	0.05266511
7	0x3e3862ca	0.18006435
8	0x3e2253b9	0.1585225
9	0xbd43b786	-0.047782443
10	0x3e0f5daf	0.14000581
11	0x3d39c4e5	0.04535379
12	0x3e1b3b70	0.15159392
13	0x3d376c05	0.04478075
14	0x3e0ecc54	0.13945132
15	0xbce4318d	-0.027855659
16	0x3dbb0942	0.09132625
17	0x3d56326a	0.052294172
18	0x3b0b9cb2	0.0021303114
19	0x3dbf5a8f	0.093434446
20	0xbd0d0c8a	-0.034435786
21	0x3d7e61cc	0.062104985
22	0xbc87761c	-0.016535811
23	0x3e002252	0.12513092
24	0xbd477f64	-0.048705474
25	0xbb4c7994	-0.0031200396
26	0xbd1b2a20	-0.03788197
27	0xbd2fd29d	-0.042925466
28	0x3d3e55b5	0.046468455
29	0xbd850007	-0.06494146
30	0x3e15c406	0.14625558
31	0xbdf038e6	-0.117296025
32	0x3bfb50a1	0.007669524
33	0x3d81bd8f	0.063349836
34	0xbd36e72e	-0.044654064
35	0x3e3e71cc	0.18598098
36	0x3cbde749	0.023181574
37	0x3d39c512	0.045353957
38	0x3ce54699	0.027987765
39	0xbd82104e	-0.06350766
40	0x3de4eece	0.11178361
41	0x3d78f773	0.06078286
42	0x3e198649	0.14992632
43	0x3e32b871	0.17453171
44	0x3e175c73	0.1478136
45	0xbc3ef5ef	-0.011655315
46	0x3e01da50	0.12680936
47	0x3dad976b	0.08476146
48	0x3e1b1391	0.15144183
49	0x3d076244	0.033052698
50	0xbd00deeb	-0.03146259
51	0xbcd5eb32	-0.026113126
52	0xbd3ffc42	-0.04687143
53	0x3e42ca7f	0.19022559
54	0x3d074ffe	0.03303527
55	0x3d9e4be3	0.07729318
56	0x3e1ea930	0.15494227
57	0x3e73faef	0.23826192
58	0x3e63edee	0.22258732
59	0xbb6f0adb	-0.0036474976
60	0x3e0db5fa	0.1383895
61	0x3bdf0cf0	0.006806962
62	0x3e0d7570	0.1381433
63	0x3da48a62	0.08034207
64	0x3db7631f	0.08954453
65	0xbb87b7ae	-0.0041417694
66	0x3e4b2ca4	0.19841248
67	0x3c76b8f0	0.015058741
68	0xbd8d393f	-0.068956845
69	0x3cb38acc	0.02191677
70	0x3e68a872	0.22720507
71	0x3ddd4ee7	0.10806065
72	0x3dcc30ba	0.09970231
73	0xbd9a54ee	-0.0753573
74	0xbd139544	-0.036031023
75	0x3c43ed76	0.011958471
76	0xbd0d34de	-0.034474246
77	0x3d08237b	0.03323696
78	0x3d1ac0e6	0.03778162
79	0x3d3ca2c2	0.046053655
80	0xbc91ca17	-0.01779656
81	0xbccde61b	-0.025134137
82	0x3dd0ddd8	0.10198563
83	0x3a8708cb	0.0010302303
84	0x3e0e4f66	0.13897476
85	0xbc9395b6	-0.018015724
86	0x3dd7e6b7	0.10542052
87	0xbcfc09f8	-0.030766472
88	0xbab37584	-0.0013691639
89	0x3d92eb84	0.07173827
90	0x3cfa4a5f	0.030553041
91	0x3cce0b8e	0.025151994
92	0x3e060cc3	0.13090806
93	0x3def713e	0.11691521
94	0xbca5783a	-0.02019893
95	0xbd0571c8	-0.032579213
96	0x3e0e4019	0.13891639
97	0x3c3da375	0.011574616
98	0x3d276d09	0.04087547
99	0xbdcf9256	-0.10135333
100	0xbd4af12f	-0.049546417
101	0x3e1ec757	0.1550573
102	0x3c8fcc65	0.017553518
103	0xbd6e18a1	-0.058128957
104	0x3db834a3	0.08994415
105	0xbd979eb9	-0.07403321
106	0xbd5a31e9	-0.053270254
107	0xbcbe1f67	-0.023208333
108	0xba2ed96e	-0.0006669973
109	0xbb6e856d	-0.0036395446
110	0x3e6fd67c	0.23421663
111	0x3c2b3c08	0.010451324
112	0x3dc55583	0.09635451
113	0xbde21d99	-0.110408016
114	0x3c58c7bb	0.013231213
115	0xbb052653	-0.0020317032
116	0x3d77d28c	0.060503528
117	0xbd902286	-0.07037835
118	0xbd8a9d52	-0.06768288
119	0xbd9f75cc	-0.0778614
120	0x3d556e82	0.05210734
121	0x3bc9688a	0.006146495
122	0xbb8928f5	-0.0041857907
123	0xbd63bb33	-0.05559845
124	0xbd3e7569	-0.04649869
125	0xbd6e204a	-0.058136262
126	0xbcb13b57	-0.02163474
127	0xbd85730c	-0.06516084
128	0x3e21a5f9	0.1578597
129	0xbbd1e1d3	-0.006405094
130	0x3e0ab91d	0.13547178
131	0x3de291aa	0.110629395
132	0xbd73502e	-0.059402637
133	0x3e452ec3	0.1925612
134	0xbcf18ab0	-0.029485077
135	0xb9c3c882	-0.00037342688
136	0xbe1ae9a3	-0.15128188
137	0xbcd2def2	-0.025741074
138	0x3dfd0dc2	0.1235614
139	0xbc135631	-0.008992718
140	0x3e2c3f15	0.16820939
141	0xbe20ede2	-0.15715745
142	0x3e4fa15d	0.20276399
143	0xbdeb0303	-0.11475184
144	0x3cd4a103	0.025955683
145	0x3dba80a2	0.09106566
146	0x3de8c87c	0.11366364
147	0x3e07487f	0.13211249
148	0x3e48acf2	0.19597223
149	0xbd9c7f12	-0.07641424
150	0x3e0ee161	0.13953163
151	0xbd39a4d9	-0.045323227
152	0xbbd0c5f5	-0.0063712546
153	0xbd3d5737	-0.046225753
154	0x3e658c8d	0.22416897
155	0xbd20226c	-0.039095327
156	0x3e3c06da	0.18361989
157	0x3e0747cf	0.13210987
158	0x3dd1162c	0.10209307
159	0xbd941c34	-0.07231942
160	0x3e20cb17	0.15702473
161	0x3d700769	0.058600817
162	0x3d67e2d5	0.05661281
163	0xbd2f7aeb	-0.042841833
164	0x3e004161	0.1252494
165	0x3cf96900	0.030445576
166	0xbda45211	-0.080234654
167	0x3dde92ee	0.10867868
168	0x3e151366	0.14558181
169	0x3b1807d2	0.002319802
170	0xbce6873e	-0.02814066
171	0xbbbd6a53	-0.005780497
172	0x3e031d45	0.12804134
173	0x3cb2b729	0.021815853
174	0xbc1436da	-0.009046281
175	0xbd2f8235	-0.042848784
176	0xbd9df45a	-0.07712622
177	0x3e028ba1	0.12748577
178	0x3e3625d4	0.17787868
179	0xbe090270	-0.13379836
180	0x3e2984d5	0.16554578
181	0x3decfe05	0.11571888
182	0x3dd1db26	0.10246877
183	0xbc4d11ea	-0.012516478
184	0x3e392ecf	0.18084262
185	0x3e1afdbd	0.15135856
186	0x3e058011	0.13037135
187	0x3d3028b4	0.043007568
188	0x3d5546c0	0.052069426
189	0x3dcae13e	0.09906243
190	0xbc1a2f53	-0.009410697
191	0x3dbf01f5	0.09326545
192	0x3dc14f37	0.09438937
193	0x3e1bdc19	0.1522068
194	0x3a0308c8	0.0004998562
195	0x3da79392	0.08182444
196	0x3d604ae7	0.054758932
197	0x3cc1b999	0.02364807
198	0xbd817cc7	-0.063226275
199	0x3dd24dc2	0.102687374
200	0xbdfde7b8	-0.123977125
201	0xbc117f73	-0.008880484
202	0x3e42447f	0.18971442
203	0x3dfac4c1	0.12244559
204	0xbc21e877	-0.009882084
205	0xbd0e3fde	-0.034728877
206	0xbd88ba0f	-0.06676113
207	0xbca50991	-0.020146163
208	0xbe0b50e1	-0.13605072
209	0x3d9efc7b	0.077630006
210	0x3db3daf4	0.08781996
211	0x3e2b4eb5	0.16729243
212	0xbe91c588	-0.28471017
213	0xbc36f8ea	-0.011167744
214	0xbdc30b15	-0.09523598
215	0x3e2ec53e	0.1706743
216	0x3e12ee4a	0.14348713
217	0x3bc29108	0.005937699
218	0x3e234159	0.15942897
219	0x3d18772e	0.037223034
220	0xbd5d9cd0	-0.054104626
221	0x3e2d05d5	0.16896756
222	0x3d4fd4e8	0.050740153
223	0x3dc204ef	0.09473597
224	0xbdf63a72	-0.12022866
225	0x3d701681	0.05861521
226	0x3cfde894	0.030994691
227	0xbc08d4f4	-0.008351553
228	0xbdf6b9ce	-0.12047158
229	0xbe0563f9	-0.13026418
230	0xbe315bc7	-0.17320167
231	0x3e1314d9	0.14363421
232	0x3dcec9d7	0.10097092
233	0x3e590efb	0.21197121
234	0x3c5ba6be	0.013406454
235	0x3dba2d98	0.090907276
236	0x3caf6d3b	0.02141439
237	0xbdaef4a6	-0.08542757
238	0x3d3deb43	0.04636694
239	0xbda14af9	-0.07875628
240	0x3d939f71	0.072081454
241	0xbd5b07b0	-0.05347413
242	0xbcfb457c	-0.030672781
243	0xbdb847b5	-0.08998052
244	0xbc7737c4	-0.015088979
245	0xbdad3561	-0.08457447
246	0xbd8c0d16	-0.068384334
247	0xbbe74375	-0.007057602
248	0x3d261f60	0.040557265
249	0x3ddb266d	0.107006885
250	0x3c4e9c21	0.012610466
251	0xbd7790f3	-0.06044097
252	0x3d4aa3a6	0.049472474
253	0x3c8343ef	0.016023604
254	0x3c862c0f	0.01637843
255	0xbd191304	-0.03737165

lstm.weight_hh_l0 f4 [256, 64]
0	0xbc9c18b8	-0.019054756
1	0xbd0f8dcd	-0.03504734
2	0xbdb24065	-0.087036885
3	0x3dfb9ab9	0.122853704
4	0x3e26b93f	0.16281603
5	0x3cce766d	0.025202954
6	0xbd338d2f	-0.043835815
7	0xbc37a031	-0.011207626
8	0x3e158278	0.14600551
9	0x3e161d9f	0.14659737
10	0xbe0c000d	-0.13671894
11	0xbd8a9e38	-0.06768459
12	0xbd91d889	-0.07121379
13	0x3ce6333c	0.028100602
14	0xbd134121	-0.035950784
15	0xbdab2b31	-0.083578475
16	0x3e1e52aa	0.15461221
17	0xbd573944	-0.052544847
18	0x3e1a5c8a	0.15074363
19	0xbd42b169	-0.047532473
20	0x3a9d88da	0.0012018934
21	0xbd78db0b	-0.06075577
22	0xbe071b91	-0.1319411
23	0x3d3098f0	0.043114603
24	0xbe3286bb	-0.17434208
25	0x3e2f52e9	0.17121471
26	0xbdbb1187	-0.091342025
27	0xbd6e75e7	-0.05821791
28	0x3c9b07e2	0.018924657
29	0x3d790ce7	0.06080332
30	0x3ce727b1	0.028217169
31	0x3de0dd76	0.1097974
32	0xbdd4be4d	-0.103878595
33	0x3e0fc4b9	0.14039887
34	0xbd5cd0f9	-0.05391023
35	0xbc68bb6b	-0.01420484
36	0xbd31998e	-0.04335933
37	0x3e8024f2	0.25028187
38	0xbc5df26e	-0.013546569
39	0xbe2efaa7	-0.17087804
40	0x3cd193e6	0.025583219
41	0xbe2bb7ff	-0.16769408
42	0xbcb4b219	-0.02205758
43	0x3d2a87e9	0.04163352
44	0x3d9406d4	0.07227865
45	0xbc5ac8a0	-0.013353497
46	0xbe8d26a3	-0.2756854
47	0xbde5ddb0	-0.11223924
48	0xbbda441c	-0.0066609513
49	0x3d8cb436	0.0687031
50	0x3d632446	0.055454515
51	0xbdba8308	-0.091070235
52	0x3d707567	0.058705714
53	0xbd96615e	-0.0734279
54	0x3cc9022b	0.024537167
55	0x3c124251	0.008926944
56	0xbd9d8cd6	-0.07692878
57	0x3df3bf66	0.11901741
58	0xbdb31368	-0.08743936
59	0x3e04c527	0.12965833
60	0x3dd657b7	0.10465949
61	0x3cc418e6	0.023937654
62	0x3dab8d9f	0.083766215
63	0x3d51adb4	0.051191047
64	0xbd261e0f	-0.04055601
65	0x3cdf6760	0.027270973
66	0x3d946d5f	0.072474234
67	0x3d101629	0.035177384
68	0x3db547af	0.08851563
69	0x3e86c97b	0.26325592
70	0x3d3f9a22	0.046777852
71	0xbcc41609	-0.023936288
72	0x3cd68237	0.026185138
73	0x3b058f85	0.0020379734
74	0x3dc065a1	0.09394384
75	0x3e05739b	0.13032381
76	0x3d1c91ba	0.038224913
77	0x3c6211df	0.013798206
78	0x3df4cc4c	0.11953029
79	0xbdf21b7f	-0.11821651
80	0x3dcb972a	0.09940942
81	0x3da3bfdd	0.079955794
82	0x3db4810c	0.08813676
83	0xbc3c2096	-0.0114823785
84	0xbde0094d	-0.10939274
85	0x3b6df573	0.003630963
86	0xbd74df53	-0.05978329
87	0x3d5c72ff	0.053820606
88	0x3dbea225	0.0930827
89	0xbdd1f9ec	-0.10252747
90	0x3d51c6e7	0.05121508
91	0xbd46b215	-0.048509676
92	0x3d7b3fbb	0.061340075
93	0xbdfa3656	-0.12217395
94	0x3dc538d5	0.096299805
95	0x3ddfbdae	0.109248504
96	0x3cacc9bd	0.02109229
97	0x3e15859e	0.14601752
98	0x3c48ff12	0.012267845
99	0xbe01ccb1	-0.1267574
100	0x3d9046ba	0.0704474
101	0x3ccded58	0.025137588
102	0xbdba1ea6	-0.09087877
103	0xbe012584	-0.12611967
104	0xbd096d0c	-0.03355126
105	0xbd7cec7a	-0.06174896
106	0x3dd1e867	0.10249405
107	0x3dd9ec21	0.10640741
108	0x3ddd92c8	0.10819012
109	0x3db80fea	0.0898741
110	0xbc919822	-0.017772738
111	0xbd9cbdc2	-0.07653381
112	0xbd8441b9	-0.06457848
113	0xbd0a8ce3	-0.033825766
114	0x3dc2044f	0.09473478
115	0x3db96ced	0.09053979
116	0x3dc1c52c	0.09461436
117	0xbd129c8f	-0.035793837
118	0xbe03236d	-0.12806483
119	0xbcb5ccbe	-0.022192355
120	0x3db163bd	0.08661602
121	0x3da7fdbe	0.08202694
122	0x3d6a85fc	0.057256684
123	0xbcf490c0	-0.029854178
124	0xbe31dc74	-0.17369252
125	0xbd166b2d	-0.036723305
126	0xbd748b14	-0.059702948
127	0xbcd601c4	-0.026123889
128	0x3c75538d	0.014973533
129	0x3a55df7b	0.00081586064
130	0xbd97cef1	-0.07412518
131	0x3ddbc2a6	0.107304856
132	0xbbd8f478	-0.00662094
133	0x3dcdc91e	0.10048126
134	0xbd24092c	-0.04004781
135	0xbde6bde8	-0.112666905
136	0x3d847557	0.06467693
137	0x3da6eb15	0.08150307
138	0xbda18155	-0.07885996
139	0x3de0eb12	0.10982336
140	0xbe20f948	-0.15720093
141	0xbdbfba14	-0.093616635
142	0xbddf4acb	-0.109029375
143	0xbd8eb696	-0.06968419
144	0x3c792098	0.015205525
145	0xbd3ebc01	-0.046566013
146	0x3dd89f83	0.105772994
147	0xbd9130e0	-0.070894
148	0x3b881edb	0.004154069
149	0xbd2a9013	-0.041641306
150	0xbb35aa0b	-0.0027719762
151	0x3dc8ffbb	0.09814402
152	0x3d9e064b	0.07716044
153	0xbd2d465d	-0.04230343
154	0xbe08c479	-0.13356198
155	0xbc882c55	-0.016622702
156	0xbdbb43af	-0.09143769
157	0x3e120277	0.14258753
158	0xbcb8c18d	-0.02255323
159	0x3df93909	0.12169082
160	0x3d717e23	0.058958184
161	0x3c0e6d59	0.008693063
162	0xbd05301a	-0.032516576
163	0xbc9b001f	-0.018920956
164	0xbd41adec	-0.047285005
165	0x3d88bd7e	0.06676768
166	0xbd877a88	-0.06615168
167	0xbace4ff0	-0.0015740376
168	0xbde5a61c	-0.112133235
169	0xbe091bc7	-0.13389502
170	0xbd7fa040	-0.062408686
171	0x3dbb4dcd	0.09145699
172	0x3de4c095	0.111695446
173	0xbcc59d0d	-0.02412274
174	0xbe06c0fa	-0.13159552
175	0xbd172de2	-0.03690899
176	0xbda4dfa8	-0.080504715
177	0x3cab7167	0.020928098
178	0x3cb46a86	0.02202345
179	0x3ddd176b	0.10795482
180	0x3cf1572a	0.029460508
181	0xbe0163c7	-0.12635718
182	0x3c0a3683	0.008435848
183	0xbccfbe59	-0.02535932
184	0xbd25f321	-0.04051507
185	0xbd9c3a3c	-0.07628295
186	0xbc8351ee	-0.016030278
187	0xbd10af3a	-0.03532336
188	0x3de0c21f	0.10974526
189	0x3e0373bc	0.12837118
190	0xbe097e9f	-0.13427208
191	0xbdb565d5	-0.088573135
192	0xbcbcbec2	-0.02304018
193	0xbd6acca8	-0.05732408
194	0x3c548d26	0.012973106
195	0xbd7e9509	-0.06215385
196	0x3d83ab7c	0.064291924
197	0x3d4bd58c	0.0497642
198	0xbd39ed5a	-0.04539237
199	0xbdc69db7	-0.096980505
200	0x3d7055fe	0.05867576
201	0x3c39b10a	0.011333713
202	0xbe09f842	-0.13473609
203	0xbd57bd08	-0.05267051
204	0xbda0a9f7	-0.07844918
205	0xbdc35c73	-0.09539118
206	0x3c3fbe1a	0.011703039
207	0x3ce06ce2	0.02739567
208	0xbc2d9ad7	-0.010595999
209	0xbd57b680	-0.05266428
210	0x3c21e3a4	0.009880934
211	0xbdc898e1	-0.09794784
212	0xbdc76517	-0.09736078
213	0x3c03114c	0.007999729
214	0x3dcbd083	0.0995188
215	0xbca21a5e	-0.019787963
216	0x3d59902f	0.05311602
217	0xbd26397f	-0.040582176
218	0xbd60012e	-0.054688625
219	0xbe05c7e1	-0.13064529
220	0x3db082de	0.08618711
221	0x3e0802e9	0.1328236
222	0x3cc5c560	0.024141967
223	0x3dcffe8b	0.10155972
224	0x3d4cd0c0	0.050003767
225	0x3da206d8	0.079114616
226	0x3d5ab461	0.05339468
227	0xbe49d4c1	-0.19710065
228	0xbe0cd2f3	-0.13752346
229	0xbd216ffc	-0.039413437
230	0x3d066a8f	0.032816466
231	0xbe060a09	-0.13089766
232	0xbde43add	-0.1114404
233	0xbdf97521	-0.12180544
234	0xbe01768e	-0.12642881
235	0x3c89645e	0.016771492
236	0x3cff742e	0.031183328
237	0xbd81a09d	-0.06329463
238	0x3e2e1d0b	0.17003267
239	0xbd853500	-0.065042496
240	0xbd53296e	-0.051553182
241	0x3df5ef31	0.12008513
242	0x3dec82ab	0.115483604
243	0x3d1569d8	0.036477894
244	0xbdc32741	-0.095289715
245	0xbdaa5396	-0.08316724
246	0x3c5f9aaf	0.013647719
247	0x3db20beb	0.086936794
248	0x3d6dfde0	0.058103442
249	0xbd2415e4	-0.04005994
250	0xbdf79e59	-0.12090749
251	0xbde5f243	-0.112278484
252	0xbe33c854	-0.17556888
253	0x3cb03c27	0.021513058
254	0xbe414154	-0.18872577
255	0xbdb48c1f	-0.088157885

lstm.bias_ih_l0 f4 [256]
0	0x3d16a8a8	0.036781937
1	0x3d30c39f	0.04315531
2	0xbd8771d7	-0.0661351
3	0xbd240789	-0.04004625
4	0x3d5be494	0.053684786
5	0x3d1eb299	0.038744543
6	0x3dbe654d	0.09296665
7	0x3e302c61	0.17204429
8	0x3e17ebc0	0.14836025
9	0x3bb6d914	0.005580077
10	0x3df733f3	0.120704554
11	0x3cd943fb	0.026521673
12	0xbd0694fb	-0.032856923
13	0x3d923efc	0.071409196
14	0xbd506eec	-0.050887033
15	0x3d58f522	0.052968152
16	0xbca9c94c	-0.020725869
17	0x3d63f058	0.05564913
18	0x3c0e5d93	0.008689302
19	0x3c70e02b	0.014701883
20	0xbda1b704	-0.078962356
21	0x3d3e5909	0.04647163
22	0x3e319378	0.17341411
23	0x3e4ede84	0.2020207
24	0xbce22f4b	-0.027610442
25	0x3d1f7033	0.03892536
26	0x3d0ca962	0.034341224
27	0x3e47bf2d	0.19506522
28	0x3d9cc59f	0.07654881
29	0x3b6dca59	0.0036283939
30	0xbc96592c	-0.018353067
31	0x3e14d5f1	0.14534737
32	0x3e34b68f	0.17647766
33	0xbd194111	-0.037415568
34	0xbba7aa9b	-0.0051167733
35	0x3d679516	0.056538664
36	0xbdc88890	-0.09791672
37	0x3d52e588	0.05148843
38	0x3e21d346	0.1580325
39	0x3ca417f0	0.020030946
40	0x3dfba92a	0.12288125
41	0xbc4ce10f	-0.01250483
42	0x3ddf3938	0.108995855
43	0x3d990847	0.07472282
44	0xbda050eb	-0.07827934
45	0x3caab48d	0.020838046
46	0x3e5a14ca	0.21296993
47	0xbd81753e	-0.0632119
48	0x3da2c53b	0.07947775
49	0x3dc4f0c0	0.09616232
50	0xbd67b83f	-0.056572195
51	0x3d03b6ac	0.03215663
52	0x3e36842f	0.17823862
53	0x3bdf1cb5	0.006808842
54	0xbbb8430d	-0.0056232275
55	0x3d6d655e	0.057958
56	0xbd6c4b6d	-0.05768912
57	0x3d922eba	0.07137819
58	0xbcbb49ad	-0.02286228
59	0x3e18e581	0.14931299
60	0x3dc67a85	0.096913375
61	0x3c210425	0.009827648
62	0x3d86d4d5	0.06583563
63	0x3decd25e	0.11563562
64	0xbdbae317	-0.09125345
65	0x3dbf4688	0.09339625
66	0x3da5ed75	0.08101932
67	0xbd8a459a	-0.06751557
68	0x3dac1f61	0.084044226
69	0x3e0bd7de	0.13656566
70	0xbd496dd7	-0.049177017
71	0x3d61df87	0.055144813
72	0x3d3c95b6	0.046041213
73	0xbbf15bcb	-0.007365679
74	0x3ddea632	0.10871543
75	0xbc5b98e5	-0.013403152
76	0xbd0f4e34	-0.03498669
77	0x3d57ae9d	0.05265676
78	0x3d9026b4	0.07038632
79	0x3ddf0320	0.10889268
80	0xbde91203	-0.113803886
81	0xbca90b6c	-0.02063533
82	0xbd0a33c5	-0.033740778
83	0xbcffc7d6	-0.031223219
84	0xbc21e25f	-0.009880631
85	0xbd7aa740	-0.06119466
86	0xbd5cd839	-0.053917143
87	0xbd01d454	-0.031696633
88	0xbdc9d01c	-0.09854147
89	0x3d54a91b	0.051919084
90	0x3d8eec6a	0.06978686
91	0xbcd26064	-0.025680728
92	0x3decedc8	0.11568791
93	0x3d8a969f	0.0676701
94	0xbde76460	-0.11298442
95	0x3db2dbac	0.08733305
96	0x3cef3688	0.029200807
97	0x3e000b59	0.12504329
98	0x3c3a4388	0.01136864
99	0xbd4b91ac	-0.04969947
100	0x3de857cc	0.11344871
101	0xbe014be0	-0.126266
102	0x3cbe44e5	0.02322621
103	0xbd91f7b2	-0.07127322
104	0xbc5f7eac	-0.013641041
105	0x3cf16203	0.029465681
106	0xbdbb7e00	-0.09154892
107	0xbd394fb4	-0.045242026
108	0xbcce79cd	-0.025204564
109	0xbb210b4d	-0.0024573386
110	0x3d4e2233	0.050325584
111	0xbd895859	-0.06706304
112	0x3dedd513	0.11612906
113	0x3d23205c	0.039825782
114	0x3cdd545b	0.027017763
115	0x3d3c97d9	0.04604325
116	0xbdca113a	-0.09866567
117	0xbb9c7525	-0.004774707
118	0xbd5fd2a8	-0.054644257
119	0x3e0dfc40	0.13865757
120	0xbcfa071c	-0.030520968
121	0xbdd30572	-0.10303773
122	0x3c9a12b9	0.018807756
123	0xbd519fe5	-0.051177878
124	0xbde0c858	-0.109757125
125	0xbd889d33	-0.06670608
126	0x3cdb6c71	0.026785107
127	0x3d8b70f5	0.06808654
128	0xbde7bb35	-0.11315004
129	0xbcf09dd7	-0.029372139
130	0xbd1df3eb	-0.038562696
131	0xbd190b00	-0.037364006
132	0x3da7dae7	0.08196049
133	0x3d881931	0.0664543
134	0x3d09259d	0.033483136
135	0xbc96983c	-0.018383138
136	0x3d27097f	0.04078054
137	0xbd015372	-0.03157372
138	0xbcaaf057	-0.020866556
139	0x3d904250	0.07043898
140	0xbd11e751	-0.03562099
141	0x3dedd68c	0.11613187
142	0x3ddf57a7	0.1090539
143	0x3d1fbbb1	0.038997356
144	0xbc3e56b9	-0.011617356
145	0xbd625b6d	-0.05526297
146	0x3d504a8d	0.050852347
147	0x3cda5a08	0.026654258
148	0xbe034609	-0.12819685
149	0xbdb637e9	-0.08897383
150	0x3b60503f	0.0034227518
151	0x3ce1bde8	0.027556375
152	0x3d6b3d9a	0.057431795
153	0x3db62699	0.08894081
154	0x3c547253	0.01296671
155	0x3db9e4df	0.09076857
156	0x3dfef26e	0.124485835
157	0xbdbf4c0c	-0.09340677
158	0x3dac7d70	0.08422363
159	0xbd670149	-0.05639771
160	0xbd8f1b1b	-0.06987592
161	0x3bf5118b	0.007478898
162	0xbdb2b5d4	-0.08726087
163	0x3b936f1c	0.0044993293
164	0xbb913e96	-0.0044325097
165	0x3d3b756a	0.04576627
166	0xbd8fac6f	-0.07015311
167	0x3d33a256	0.043855987
168	0x3d93c237	0.07214778
169	0xbd1a379b	-0.037650686
170	0x3d83b0ff	0.06430244
171	0xbd81b236	-0.06332819
172	0x3d7f4762	0.062323935
173	0xbdc525aa	-0.096263245
174	0xbbf0c5a3	-0.007347779
175	0xbccfb0e3	-0.0253529
176	0xbc820013	-0.015869176
177	0x3de90201	0.11377335
178	0x3cd921b1	0.026505323
179	0x3ddb9a1a	0.10722752
180	0x3d879de0	0.06621909
181	0xbccfb47d	-0.025354618
182	0xbce50e6c	-0.027960978
183	0xba99605a	-0.0011701689
184	0xbdc29b03	-0.095022224
185	0x3d587dd8	0.05285439
186	0x3dd2ea68	0.10298616
187	0x3d956bf6	0.072959825
188	0x3da8131d	0.082067706
189	0x3dff665e	0.12470697
190	0xbc3f6bab	-0.011683385
191	0xbb2c9dd5	-0.0026339192
192	0x3c202e63	0.009776684
193	0xbd9a94d8	-0.07547921
194	0xbd900cd2	-0.07033695
195	0x3ba333fa	0.0049805613
196	0xbdb5fa83	-0.08885672
197	0x3cfbf25c	0.030755214
198	0x3d9647e9	0.073379345
199	0x3e05e41b	0.13075297
200	0xbcc62bcb	-0.024190804
201	0xbd7279ab	-0.059198063
202	0x3da47f01	0.080320366
203	0x3d2b71fc	0.04185675
204	0xbda84d9e	-0.08217929
205	0xbd5f71de	-0.05455195
206	0x3d9497ef	0.072555415
207	0x3e0d9fca	0.13830486
208	0x3da819f5	0.08208076
209	0x3dd030ef	0.10165583
210	0x3d06081e	0.032722585
211	0x3dd00e5a	0.10158987
212	0x3dc16978	0.09443945
213	0x3ce7164f	0.02820888
214	0x3e03c2b3	0.1286724
215	0x3ddabc16	0.10680406
216	0x3d96be46	0.073605105
217	0xbdbff7cd	-0.09373436
218	0xbd2dacc6	-0.042401098
219	0x3d5fcf04	0.054640785
220	0xbd72fd63	-0.05932368
221	0x3e2ed3a8	0.17072928
222	0xbd4bece9	-0.049786482
223	0x3d9c8f9a	0.07644577
224	0x3e54c498	0.2077812
225	0x3d49a3bd	0.04922842
226	0x3bdb488d	0.0066919983
227	0x3d7ca88c	0.061684176
228	0xbda9208a	-0.082581595
229	0x3e44e3ad	0.19227476
230	0xbd0c82d3	-0.03430445
231	0xbd9b908d	-0.0759593
232	0x3e1bada9	0.15202965
233	0x3e3de45f	0.18544148
234	0x3cf4d127	0.029884888
235	0xbd01bfba	-0.031676985
236	0x3e0ffe38	0.1406182
237	0x3cf6d66f	0.030131547
238	0x3e047cd7	0.12938248
239	0x3e088951	0.13333632
240	0x3e10ad94	0.14128715
241	0x3d4f6e9f	0.050642606
242	0x3e177b4a	0.14793125
243	0xbc58389b	-0.01319709
244	0x3e01db58	0.12681329
245	0x3e10b918	0.14133108
246	0xbd6c2d26	-0.057660244
247	0xbdb8053d	-0.08985374
248	0x3d7cd8c9	0.06173018
249	0x3d8b6869	0.06807024
250	0x3da39e4e	0.079891786
251	0x3d8e1eec	0.06939492
252	0x3e9f5c8a	0.3112529
253	0x3e09709e	0.13421866
254	0x3c06d485	0.00822938
255	0xbd826d93	-0.06368556

lstm.bias_hh_l0 f4 [256]
0	0x3e220909	0.15823759
1	0xbcc2cc80	-0.023779154
2	0x3d2bd18d	0.04194789
3	0x3d96717a	0.07345863
4	0x3ce516d3	0.027964985
5	0x3d3ed343	0.046588194
6	0xbcdeda59	-0.027203726
7	0x3db895c2	0.09012939
8	0x3df7f349	0.1210695
9	0x3caceeab	0.0211099
10	0xbd247b5f	-0.04015672
11	0xbd91a81c	-0.071121424
12	0x3dd53405	0.104103126
13	0x3d84b503	0.06479838
14	0xbdc02c2c	-0.09383425
15	0x3c832049	0.016006606
16	0x3baaf421	0.0052170907
17	0x3d17d988	0.03707269
18	0x3d816095	0.0631725
19	0x3db99354	0.09061304
20	0xbdb573e4	-0.08859995
21	0x3dda68d4	0.10664526
22	0x3e08dee0	0.1336627
23	0x3dd199a7	0.10234385
24	0x3df75883	0.12077429
25	0x3e163be5	0.14671285
26	0x3d1ada6e	0.037805967
27	0x3e73f42f	0.23823617
28	0x3d35d1c3	0.044389497
29	0xbc38adea	-0.011271933
30	0x3db7391a	0.08946438
31	0xbc2cb5e9	-0.010541418
32	0x3d978316	0.073980495
33	0xbda5a65e	-0.08088373
34	0x3d8cb9a6	0.06871347
35	0x3e6c82b4	0.23096734
36	0xbcbd85e8	-0.02313514
37	0x3e1f1edc	0.15539116
38	0x3d989ec6	0.07452159
39	0x3de626dd	0.11237881
40	0x3e148f06	0.14507684
41	0x3e2d8331	0.16944577
42	0x3bb5dcaf	0.005549989
43	0x3cbc937b	0.023019543
44	0xbda63505	-0.081155814
45	0xbd3b9f21	-0.045806054
46	0x3de63e97	0.11242407
47	0x3de04554	0.10950723
48	0x3d590d10	0.052990973
49	0x3cbc6b06	0.023000252
50	0x3e0efa43	0.13962655
51	0x3d8ce86a	0.06880267
52	0x3e3e4ab9	0.18583192
53	0x3e0abce0	0.13548613
54	0xbd0b590c	-0.03402047
55	0x3e0103de	0.12599131
56	0x3e000af8	0.12504184
57	0x3c7d1dbe	0.015448986
58	0x3db2270f	0.08698856
59	0x3ca30dad	0.019903982
60	0x3dfd971d	0.12382338
61	0xbcc4331c	-0.023950152
62	0x3d173c75	0.03692289
63	0x3cf0f48e	0.029413488
64	0xbdcf48ed	-0.10121331
65	0xbbb9e3c0	-0.005672902
66	0x3dc41e9f	0.09576153
67	0xbd67e129	-0.056611214
68	0xbd2909a4	-0.04126896
69	0x3d484e34	0.048902705
70	0xbcca9451	-0.024728926
71	0x3d622829	0.05521408
72	0xbdcdc880	-0.10048008
73	0x3d329499	0.043598745
74	0x3e09f93b	0.1347398
75	0x3cd4eaf6	0.025990944
76	0x3e04ccc4	0.12968737
77	0xbdbdef9c	-0.092742175
78	0xbd7cc77e	-0.061713688
79	0xbce3e050	-0.027816921
80	0x3df0abfb	0.11751553
81	0xbdd53eb4	-0.1041235
82	0xba97a7a6	-0.0011570349
83	0xbdc7920b	-0.09744652
84	0x3d458719	0.048224542
85	0xbdcb8bd9	-0.09938783
86	0xbda9875a	-0.082777694
87	0xbd2ba277	-0.041902985
88	0xbd7d197d	-0.061791886
89	0x3da754c2	0.08170463
90	0x3cafef18	0.021476313
91	0xbda6c5d8	-0.081432045
92	0x3ded6d2c	0.115930885
93	0x3c9dba10	0.01925376
94	0x3c96933a	0.01838075
95	0xbd160d11	-0.036633555
96	0xbd275a93	-0.040857863
97	0xbd994a91	-0.074849255
98	0xbd9babf7	-0.07601159
99	0xbd815c91	-0.06316484
100	0x3dae8d62	0.085230604
101	0xbd7164f4	-0.058934167
102	0xbe0bb4dd	-0.13643213
103	0x3d940ac3	0.07228615
104	0xbc87ac7d	-0.016561741
105	0xbd42d80d	-0.047569323
106	0x3e025267	0.12726746
107	0xbdbd7435	-0.0925068
108	0xbdc6250b	-0.09675034
109	0x3db20030	0.08691442
110	0x3dc0e214	0.09418121
111	0xbce5d7a1	-0.028056921
112	0x3dd1b55f	0.10239672
113	0xbd7b63c8	-0.061374456
114	0xbd415345	-0.047198553
115	0xb8254074	-3.9399092e-05
116	0xbd7c51b6	-0.061601363
117	0x3d9fb99b	0.07799073
118	0xbd776b00	-0.060404778
119	0x3df32ec2	0.11874153
120	0x3db40f82	0.087920204
121	0xbd654ced	-0.055981565
122	0xbd6e0326	-0.05810847
123	0x3d74e15f	0.059785243
124	0xbc4661d0	-0.012108281
125	0xbdb77d99	-0.08959503
126	0x3e1715df	0.14754437
127	0x3dfaa129	0.1223777
128	0x3de50482	0.111825004
129	0x3d4726e2	0.048621066
130	0xbdc6a480	-0.09699345
131	0xbd477964	-0.04869975
132	0xbcb8e170	-0.022568434
133	0x3c5f0858	0.013612829
134	0x3dafa541	0.085764416
135	0x3cc126ea	0.023578126
136	0xbdf8f472	-0.12155999
137	0xbd60fe3a	-0.05492995
138	0xbd954488	-0.07288462
139	0xbdac63de	-0.08417486
140	0x3d59b9e9	0.053155813
141	0x3aa6b70a	0.0012719345
142	0xbdd4ccf7	-0.103906564
143	0xbd94e478	-0.072701395
144	0xbdba4f44	-0.0909715
145	0xbde541a8	-0.111941636
146	0x3d3f1f3f	0.046660658
147	0xbd6d0b35	-0.057872016
148	0xbe04d791	-0.12972857
149	0x3cda47a1	0.026645483
150	0xbba2080b	-0.0049448065
151	0xbddc1be1	-0.10747505
152	0x3c58a1bb	0.013222153
153	0x3c310e55	0.01080664
154	0xbc2ae27b	-0.010429974
155	0x3d5999f4	0.053125337
156	0xbcfbb492	-0.030725751
157	0xbde323b8	-0.11090797
158	0x3d3da8c6	0.046303533
159	0x3defc0d3	0.117067
160	0x3e005609	0.1253282
161	0x3d6cdd99	0.05782852
162	0x3de54c0a	0.11196144
163	0x3cf96399	0.030443
164	0xbdf171ca	-0.11789282
165	0x3d37718e	0.04478603
166	0xbdc152f9	-0.09439654
167	0xbe0cbef6	-0.13744721
168	0x3ce2519a	0.027626801
169	0xbdec7ce4	-0.115472585
170	0xbdad38f7	-0.08458131
171	0x3e0127da	0.12612858
172	0x3d488250	0.0489524
173	0x3cf79841	0.030223968
174	0xb98917d4	-0.0002614843
175	0x3d383a54	0.0449775
176	0xbc8bc174	-0.01706002
177	0xbce8f890	-0.028438836
178	0xbc814303	-0.015779024
179	0x3d9c3b84	0.07628539
180	0xbd479d6d	-0.048734117
181	0xbccbb30d	-0.024865652
182	0x3dd65094	0.10464588
183	0x3bab2ff0	0.0052242205
184	0x3d461e78	0.0483689
185	0xbd472902	-0.048623092
186	0x3d99bff2	0.07507314
187	0xbdb3b29a	-0.087743
188	0xbd7b7dfa	-0.061399437
189	0xbdda6468	-0.10663682
190	0xbe02bca1	-0.12767269
191	0x3dab5f3e	0.083677754
192	0x3e080cd9	0.13286151
193	0x3dc4ef32	0.096159354
194	0x3d98333c	0.07431647
195	0x3dc5b270	0.09653175
196	0x3d9a42b3	0.07532253
197	0x3e431651	0.19051482
198	0xbc0d5a49	-0.008627483
199	0x3e97ae52	0.29625183
200	0x3e269619	0.16268195
201	0x3d87e4cb	0.06635436
202	0x3c22b5dc	0.009931054
203	0x3e092ec1	0.13396741
204	0x3ce80ec7	0.028327359
205	0xbd8fc71f	-0.07020401
206	0xbcc76c87	-0.024343742
207	0x3c93bcd8	0.018034384
208	0x3dc91e3d	0.098202206
209	0x3d94345e	0.07236551
210	0x3d765db9	0.060147975
211	0x3e1ecf95	0.15508874
212	0x3de7093c	0.11281058
213	0x3cc74e5f	0.024329362
214	0x3ca34809	0.01993181
215	0x3e03d371	0.12873627
216	0x3cb476c2	0.022029284
217	0xbd91f099	-0.071259685
218	0xbc0592ec	-0.008152705
219	0x3e640c65	0.22270353
220	0xbe04fddd	-0.12987466
221	0x3d97e837	0.07417338
222	0x3d176005	0.036956806
223	0x3b65eb1c	0.0035082763
224	0x3e3503a5	0.17677172
225	0xbd07d25f	-0.03315961
226	0xbd512645	-0.051061887
227	0x3cae61a5	0.021286795
228	0x3daf1f3a	0.08550878
229	0x3e36a39f	0.17835854
230	0x3d99b9e9	0.07506163
231	0x3c9fa023	0.019485539
232	0xbd9fe33f	-0.07807016
233	0x3de6b5b3	0.11265125
234	0xbd84daa2	-0.064870134
235	0x3db4677f	0.08808803
236	0xbc62eb14	-0.013849992
237	0xbbe372e6	-0.006941187
238	0x3e8e1f54	0.27758276
239	0xbd2a5079	-0.04158065
240	0xbd66f4e3	-0.056385886
241	0xbd2a088e	-0.041512065
242	0x3cf4867b	0.029849282
243	0x3c0384d8	0.008027278
244	0xba9ae465	-0.0011817334
245	0x3d98f426	0.074684426
246	0x3e08723a	0.13324824
247	0xbcbcf7f3	-0.02306745
248	0xbd3a4965	-0.04548015
249	0x3df45de8	0.11931974
250	0xbce0957d	-0.027415032
251	0x3c065cb4	0.008200813
252	0x3dc0c941	0.09413386
253	0x3d98fff4	0.07470694
254	0x3e23e190	0.16004014
255	0x3e3247d3	0.17410211

fc_trad.weight f4 [8, 64]
0	0xbdb55d4a	-0.08855684
1	0xbdfbdc1f	-0.12297844
2	0x3da9edbb	0.082972966
3	0x3de6470c	0.1124402
4	0xbdd0d71b	-0.10197278
5	0xbe5efcb3	-0.21776085
6	0x3dcb1b05	0.09917263
7	0xbe4588ad	-0.19290419
8	0xbbef4db3	-0.0073029636
9	0xbc522346	-0.012825793
10	0xbd95910b	-0.073030554
11	0x3e1a6be5	0.15080221
12	0xbc898a6c	-0.016789638
13	0x3dcdbaa9	0.10045368
14	0xbe0b6963	-0.1361442
15	0xbdab43d9	-0.0836255
16	0x3de1eb54	0.110312134
17	0x3dee15e2	0.116252676
18	0x3c350355	0.011048158
19	0xbdcc4f97	-0.09976118
20	0xbdda67dd	-0.106643416
21	0x3e91e0de	0.28491873
22	0x3dc4837a	0.0959539
23	0x3e660692	0.22463444
24	0xbd2cda39	-0.0422003
25	0xbd23761c	-0.03990756
26	0x3dac5073	0.08413782
27	0xbe8a5466	-0.27017516
28	0xbd78aa6e	-0.06070941
29	0x3d74d37b	0.059771996
30	0x3dd08023	0.1018069
31	0x3dae6df8	0.085170686
32	0xbcb3eaa4	-0.021962471
33	0x3de4f5f8	0.11179727
34	0xbe4f8726	-0.20266399
35	0xbe806ad9	-0.25081518
36	0xbd96c408	-0.07361609
37	0xbd9b62d0	-0.07587206
38	0xbe53172c	-0.20614308
39	0x3dde294c	0.108477205
40	0xbdafb0e5	-0.08578662
41	0x3d937f26	0.07201986
42	0x3d440a4a	0.047861375
43	0x3e2153b4	0.15754586
44	0x3dae7a46	0.085194156
45	0x3c0f5618	0.008748554
46	0x3e968dee	0.2940516
47	0xbd34c444	-0.044132486
48	0x3ce8f250	0.028435856
49	0x3dd61c98	0.104546726
50	0x3d806eba	0.062711194
51	0x3e4b2201	0.1983719
52	0x3d8a1a70	0.06743324
53	0x3dbaced0	0.091214776
54	0x3e3773d8	0.17915285
55	0x3d24a8d3	0.040200066
56	0xbdda49fa	-0.10658641
57	0xbc00a226	-0.007851159
58	0xbd84ea91	-0.064900525
59	0xbdac9873	-0.08427515
60	0x3db0b1ba	0.08627649
61	0x3e333e77	0.17504297
62	0x3e3dad5e	0.18523166
63	0x3d96cae1	0.07362915
64	0x3d9cc0f0	0.076539874
65	0xbdc86ef2	-0.09786786
66	0x3d17771b	0.036978822
67	0x3dfbefe2	0.123016134
68	0x3d053bc8	0.032527715
69	0x3d9a1081	0.07522679
70	0x3e40523c	0.1878137
71	0xbecd155c	-0.40055358
72	0xbbe5415a	-0.006996316
73	0xbb81e9b8	-0.003964629
74	0xbde47323	-0.11154773
75	0x3dd884c0	0.10572195
76	0xbd8a7393	-0.06760325
77	0xbbdff3e8	-0.006834496
78	0x3bc85a93	0.006114313
79	0xbdb3e35c	-0.087836
80	0x38ddf5be	0.00010583874
81	0xbdbdfc95	-0.09276692
82	0x3dab9fcc	0.08380088
83	0x3d1f3be9	0.038875494
84	0x3c8276b4	0.015925743
85	0xb9572bb0	-0.00020520273
86	0xbd9c9e9a	-0.07647438
87	0xbcfbe15e	-0.030747112
88	0xbd9c97c1	-0.07646132
89	0xbc89ea24	-0.01683528
90	0xbca3c736	-0.019992452
91	0x3d9e1646	0.07719092
92	0xbc7a3255	-0.015270789
93	0x3db495c5	0.08817629
94	0xbd2bc9e2	-0.041940577
95	0xbdca792c	-0.09886393
96	0xbdb92022	-0.09039332
97	0x3d5bdcd4	0.053677395
98	0xbdbd6676	-0.092480585
99	0x3ce349ac	0.02774509
100	0xbd25233d	-0.04031681
101	0xbd94fe73	-0.07275095
102	0x3e278ab7	0.1636151
103	0x3df2c19b	0.118533336
104	0xbe035b42	-0.12827781
105	0xbe274c0c	-0.16337603
106	0x3dc241e8	0.09485227
107	0x3e011024	0.12603813
108	0xbdd9e1a9	-0.106387444
109	0x3d18c322	0.03729547
110	0xbe26b045	-0.16278179
111	0xbe0933fd	-0.13398738
112	0xbde65c41	-0.11248065
113	0x3cf9f8d0	0.03051415
114	0x3dfdd416	0.12393968
115	0x3df09c86	0.117486045
116	0xbe48be95	-0.19603951
117	0x3d044c50	0.03229934
118	0x3e35766f	0.1772096
119	0x3dbeccce	0.09316407
120	0x3e1713a3	0.14753585
121	0xbd46eab2	-0.048563667
122	0x3c4a1408	0.012333877
123	0x3de9d2a8	0.114171326
124	0xbeeee598	-0.4665954
125	0xbc5b99af	-0.01340334
126	0x3eb2a0f0	0.3488841
127	0x3d8ebf12	0.069700375
128	0x3c6e15db	0.014531578
129	0x3c76a803	0.015054706
130	0xbdc62ea5	-0.096768655
131	0xbd23f20b	-0.040025752
132	0x3d9ac5e4	0.07557276
133	0xbe43c817	-0.19119297
134	0x3dd34246	0.10315375
135	0xbe02ea33	-0.12784652
136	0x3da8aaaf	0.0823568
137	0x3e019f30	0.12658381
138	0xbba755a1	-0.0051066433
139	0xbcdf8664	-0.027285762
140	0xbdf1a998	-0.117999256
141	0xbd5962de	-0.053072803
142	0xbe1b0091	-0.15136935
143	0x3d3fd6dc	0.046835765
144	0x3c524a29	0.012835064
145	0xbdd0e01a	-0.10198994
146	0x3d31e892	0.043434687
147	0x3e239f33	0.15978698
148	0xbdb0238e	-0.086005315
149	0xbd956096	-0.07293813
150	0xbd57c01f	-0.052673455
151	0x3db0a1ee	0.08624636
152	0x3d1d90f5	0.03846832
153	0x3dc1759c	0.0944626
154	0xbb1e509f	-0.002415694
155	0xbda6911d	-0.08133147
156	0x3ce5ce61	0.02805251
157	0xbdc9c0b7	-0.098512106
158	0xbd86761c	-0.06565496
159	0x3c9bfecf	0.0190424
160	0x3eadbf8f	0.3393521
161	0xb950cc22	-0.00019912471
162	0xbe047766	-0.12936172
163	0x3e868b78	0.2627828
164	0xbddcc2e7	-0.10779362
165	0xbd0795ab	-0.03310172
166	0xbd474bf9	-0.048656438
167	0xbbe5d9fc	-0.007014511
168	0xbd4921b0	-0.049104393
169	0x3d4d3d99	0.050107572
170	0xbe0fb5b0	-0.14034152
171	0x3df4237d	0.11920831
172	0x3cead13d	0.028664226
173	0xbe244579	-0.16042127
174	0xbe392d73	-0.18083744
175	0x3ce4732c	0.02788695
176	0xbde71684	-0.112835914
177	0x3d91dcc6	0.07122187
178	0x3d69ee33	0.05711193
179	0xbe1980f5	-0.149906
180	0x3db7c397	0.08972853
181	0x3d3b6a09	0.04575542
182	0x3e01d360	0.1267829
183	0xbc030183	-0.007995966
184	0xbe4bbd42	-0.19896415
185	0x3db98990	0.09059441
186	0xbe0c8ad9	-0.13724841
187	0x3e263592	0.16231373
188	0x3eb7a1fe	0.35865778
189	0x3c2cfb0c	0.010557901
190	0x3d13088b	0.03589682
191	0x3e1ecf72	0.15508822
192	0xbe34aa9c	-0.17643207
193	0xbd4b316f	-0.04960769
194	0xbde71154	-0.11282602
195	0x3d4efee6	0.05053606
196	0x3def7f00	0.11694145
197	0x3da58512	0.08082022
198	0xbd2917a8	-0.041282326
199	0xbd779ea8	-0.06045404
200	0x3e3a3d77	0.1818751
201	0x3e09780f	0.13424705
202	0xbdbdb421	-0.092628725
203	0x3e067350	0.13129926
204	0xbd4170df	-0.047226783
205	0xbac4d238	-0.0015016263
206	0xbda1c33a	-0.07898565
207	0xbd071aa0	-0.032984376
208	0x3deb8e63	0.115017675
209	0x3a29be26	0.00064751727
210	0xbd75e1a3	-0.060029637
211	0x3d2025f1	0.039098684
212	0xbe0f0eed	-0.13970537
213	0xbe82a82a	-0.25518924
214	0x3d58b32e	0.052905254
215	0x3d6c6ebd	0.057722796
216	0xbe1eae53	-0.15496187
217	0x3dfedc2d	0.12444339
218	0xbe02ab23	-0.12760596
219	0xbd3f8908	-0.046761543
220	0x3dbc2626	0.09186964
221	0xbb97a658	-0.004627984
222	0xbd0b36b5	-0.03398772
223	0xbcc1e0ed	-0.023666823
224	0xbe980d3e	-0.29697603
225	0x3dd18872	0.10231103
226	0x3e007d42	0.12547782
227	0xbd6e096e	-0.05811446
228	0xbd9d6d5f	-0.076868765
229	0x3e8b0a69	0.2715638
230	0xbdebdb05	-0.11516384
231	0xbd23feac	-0.040037796
232	0xbe2191b3	-0.15778236
233	0xbdc24e1e	-0.09487556
234	0xbcb82794	-0.02247981
235	0x3e0692d3	0.13141946
236	0x3d56daab	0.05245463
237	0xbdd4cd13	-0.10390677
238	0x3e3e4eee	0.18584797
239	0xbc963d99	-0.018339919
240	0xbdaca53a	-0.08429952
241	0xbdd259fe	-0.10271071
242	0x3c934bbe	0.017980453
243	0xbdbee3ec	-0.093208164
244	0xbe7e9949	-0.24863161
245	0xbe082059	-0.1329359
246	0xbe01927d	-0.12653537
247	0xbd7dde52	-0.0619796
248	0xbc7c18b2	-0.015386747
249	0xbc48827a	-0.012238139
250	0x3dde1c2e	0.108452186
251	0xbd9050ce	-0.07046662
252	0x3e8ff77b	0.281185
253	0x3e1d990e	0.15390417
254	0xbd8ab805	-0.0677338
255	0x3e176cb3	0.14787559

fc_trad.bias f4 [8]
0	0x3d57f1ff	0.05272102
1	0x3c3c57b5	0.01149552
2	0xbd5f42dd	-0.054507125
3	0xbd9e15c7	-0.077189974
4	0x3bfbc909	0.0076838774
5	0x3d362350	0.04446727
6	0x3b869dbe	0.00410816
7	0x3ce7ccbd	0.028295869

fc_quan.weight f4 [8, 4]
0	0xbe897a2a	-0.26851016
1	0xbe662904	-0.22476584
2	0xbd8d0218	-0.06885165
3	0x3e555b90	0.2083571
4	0xbeeae0f6	-0.45874757
5	0x3e59a448	0.21254075
6	0x3e8fcc22	0.28085428
7	0xbefcf362	-0.49404436
8	0x3e56e358	0.20985162
9	0x3d9a7550	0.07541907
10	0x3e4bd790	0.1990645
11	0xbe8e1d70	-0.27756834
12	0x3ea151fc	0.31507862
13	0xbe93d4fc	-0.28873432
14	0xbe5ebe0c	-0.21752185
15	0x3e24cbf8	0.16093433
16	0xbddc8dc8	-0.1076923
17	0x3eb26c4a	0.34848243
18	0xbd6d2bd0	-0.05790311
19	0xbec7966a	-0.38981944
20	0xbed556aa	-0.41667682
21	0x3cd2dbc0	0.02573955
22	0xbec77e50	-0.38963556
23	0x3ee4d9e8	0.446975
24	0x3ede8a9e	0.43465132
25	0x3e9a1d7c	0.3010062
26	0xbec355ae	-0.38151306
27	0xbdeb6608	-0.1149407
28	0x3ebce16a	0.36890727
29	0x3dd08a68	0.10182649
30	0x3d211fe0	0.03933704
31	0xbd1ee820	-0.03879559

fc_quan.bias f4 [8]
0	0xbe8c8268	-0.27443242
1	0xbe22e260	-0.15906668
2	0x3e95398c	0.29145467
3	0xbdc775a8	-0.09739238
4	0xbe092d70	-0.1339624
5	0x3e7c53c4	0.24641329
6	0xbe7671f4	-0.24066907
7	0xbd97ebf8	-0.07418054

quantum_circuit.qlayer.q_weights.0 f4 [240]
0	0x3fbc105e	1.4692495
1	0xbf81ab29	-1.0130359
2	0x3f8bbaa6	1.0916336
3	0x3f188f99	0.5959411
4	0xbfcd6fad	-1.6049706
5	0x3ed4ea38	0.41584945
6	0xbfc0c59c	-1.5060306
7	0xbf66f156	-0.90212
8	0x3fd56aac	1.6673179
9	0x3f516438	0.81793547
10	0xbf9803f8	-1.1876211
11	0xbef510a0	-0.47864246
12	0xbeb99c33	-0.36251983
13	0xbf16e93a	-0.58949625
14	0x40275443	2.614518
15	0x3e94185c	0.28924835
16	0xbff51529	-1.9147083
17	0x3f94c124	1.1621442
18	0x3f9c4853	1.2209572
19	0x3fdac813	1.7092308
20	0xbf0420b0	-0.5161238
21	0xbf24ca12	-0.64370835
22	0x3e9ac506	0.30228442
23	0xbf5ea4e3	-0.8697035
24	0x3f1dced9	0.6164375
25	0xbdf356bb	-0.11881777
26	0xbf1ba4e1	-0.6079846
27	0x3f05604e	0.52100074
28	0x3f90de0a	1.1317761
29	0x3e6d6dd2	0.23186424
30	0xbf9e07bc	-1.234611
31	0x3f375684	0.7161639
32	0x3f822105	1.0166327
33	0xbf527a6d	-0.82218057
34	0x3ee64946	0.44977778
35	0xbea9359c	-0.33048713
36	0x3da6d99f	0.08146977
37	0xbfa3f36a	-1.2808659
38	0x3fd008e9	1.6252719
39	0xbedc776f	-0.4305987
40	0xbe8455b6	-0.25846642
41	0x3effb32c	0.49941385
42	0xbeeda52b	-0.46415076
43	0x3e44c823	0.19216971
44	0x3eea9799	0.45818785
45	0xbed0f406	-0.40811175
46	0x3c81b78c	0.015834592
47	0xbf84cdf8	-1.0375357
48	0xbfaea87a	-1.3645165
49	0x3fbdf88b	1.4841474
50	0xbfcc8e07	-1.5980843
51	0xc008f7de	-2.1401286
52	0x3f07dba1	0.530695
53	0xbe77f58d	-0.24214764
54	0x3f8211e3	1.0161709
55	0xbf125e05	-0.5717471
56	0xbcb0a4ae	-0.0215629
57	0xbf297aaf	-0.66202825
58	0xbf0ddeb1	-0.55417925
59	0xbf593ea3	-0.848612
60	0x3e9e7925	0.309518
61	0xbb8288a9	-0.0039835763
62	0x3f3aae64	0.7292235
63	0x3f129b5a	0.572683
64	0xbfec975e	-1.8483694
65	0xbe8c0127	-0.2734463
66	0x3f904407	1.127076
67	0x3f27d40a	0.6555792
68	0xbe69c861	-0.22830345
69	0xbf308769	-0.6895662
70	0xbea78a6a	-0.3272279
71	0xbf251773	-0.64488906
72	0xbf0bbcff	-0.5458526
73	0x3f898c56	1.0745952
74	0x3f8cb03a	1.099128
75	0x3fab189a	1.3366883
76	0xbff1ff61	-1.890606
77	0x3fa626e4	1.2980618
78	0x3dc3ef3f	0.09567117
79	0xbf680907	-0.90638775
80	0x3ff0b7c9	1.8806087
81	0x3fa347af	1.2756251
82	0x3ed3dac6	0.41377848
83	0x3f8f3c87	1.1190346
84	0x3f20a15e	0.62746227
85	0x3defd91b	0.117113315
86	0x3f46bb8f	0.7762994
87	0xbf2091da	-0.6272255
88	0xbdb74a12	-0.08949675
89	0x3f8cf47c	1.1012111
90	0x3fc6655f	1.5499686
91	0xc00d084d	-2.2036316
92	0x3f976203	1.1826786
93	0xbf4d1c7e	-0.801216
94	0x3fb47b19	1.4100066
95	0xbf661b0a	-0.8988501
96	0xbf8e5f57	-1.1122845
97	0x3f8a7724	1.0817609
98	0x3ebee3c4	0.37283146
99	0x3fc29261	1.5200921
100	0x3f475b0d	0.7787331
101	0xbf08d0ec	-0.5344379
102	0x3df14687	0.1178103
103	0x3f1c7da7	0.6112923
104	0x4001507f	2.020538
105	0xbf8e5e01	-1.1122438
106	0x3f0f391b	0.5594651
107	0x3e9f761e	0.31144804
108	0x3f5f8b99	0.87322384
109	0xbf5a0480	-0.85163116
110	0x3d2ad49a	0.04170666
111	0x3a40c36e	0.000735334
112	0xbf97c106	-1.1855781
113	0xbd96f6aa	-0.07371266
114	0x3faca5a1	1.3488046
115	0x3f56d32c	0.8391597
116	0x401e3e53	2.472554
117	0xbe315554	-0.17317706
118	0xbe4f726c	-0.20258492
119	0x3e827b97	0.25484917
120	0x3e44801e	0.19189498
121	0x3e69fb4c	0.22849768
122	0xbdb91b06	-0.090383574
123	0x3f306367	0.68901676
124	0x3e9b3463	0.30313405
125	0xbf59b534	-0.8504212
126	0x3e43a993	0.19107656
127	0xbf2239c2	-0.6336938
128	0x3f8fe22c	1.1240897
129	0xbe99aa52	-0.30012757
130	0xbf68960d	-0.9085396
131	0x3f56fd2f	0.8398008
132	0xbe81b833	-0.25335845
133	0xbe7270bc	-0.23675817
134	0x3e83243d	0.25613585
135	0xbe94e12c	-0.29078043
136	0xbf330eec	-0.69944644
137	0xbfbb3f7b	-1.4628748
138	0x3fe10624	1.7579999
139	0xbf2b87ea	-0.67004263
140	0xbf493603	-0.7859804
141	0xbf588202	-0.84573376
142	0xbf6cd937	-0.92518944
143	0xbe21ce36	-0.1580132
144	0xbf70fff1	-0.94140536
145	0xbed6ddff	-0.41966245
146	0xbe9f0a4f	-0.31062552
147	0x3fc0e271	1.5069104
148	0x3eea1d21	0.4572535
149	0x3e14bb48	0.14524567
150	0x3e176dbb	0.14787953
151	0x4005c864	2.0903559
152	0x3f17305f	0.59058183
153	0x40001891	2.0014994
154	0x3fb7ba4d	1.435373
155	0x3f938f7d	1.1528164
156	0xbfd7006d	-1.6797005
157	0xbf160268	-0.5859742
158	0x3f758988	0.9591298
159	0x3e491c45	0.1963969
160	0x3f4719cf	0.77773756
161	0x3f969cad	1.1766564
162	0xbf024746	-0.50890005
163	0x3e7390fb	0.23785774
164	0x3eb0c343	0.34523973
165	0xbf0535f1	-0.52035433
166	0xbfaee84e	-1.3664644
167	0x3fb33463	1.4000362
168	0xbf92ce8c	-1.1469283
169	0x3eb4d510	0.35318804
170	0xbff1ad6f	-1.8881053
171	0xbfab9055	-1.3403422
172	0xbf7ef865	-0.9959777
173	0x3fddec01	1.7337648
174	0xbfa41dd7	-1.2821606
175	0x3f67ac36	0.9049715
176	0xc004a767	-2.0727174
177	0x3e0306d0	0.12795568
178	0x3f9a8da6	1.2074478
179	0xbf003bed	-0.5009144
180	0x3f331e7b	0.69968385
181	0xbf21d772	-0.6321937
182	0x3facf8df	1.351345
183	0xbf39dec3	-0.7260553
184	0xbf10ab39	-0.56511265
185	0x3f9dcb18	1.2327604
186	0x3fc29ad7	1.5203503
187	0xbfaac20d	-1.334047
188	0x3ec728e9	0.388984
189	0xbfce6fc7	-1.6127862
190	0x3fa3603f	1.2763747
191	0x3db1cc8b	0.086815916
192	0xbdce764c	-0.10081157
193	0xbfa1f941	-1.2654191
194	0x40186427	2.3811128
195	0xbe92de97	-0.28685448
196	0x3f5f957b	0.87337464
197	0x3f5d590d	0.86464006
198	0x3d120d41	0.03565717
199	0xbea443c8	-0.32082963
200	0x3f5f86d8	0.8731513
201	0x3f847276	1.0347431
202	0xbf85d59b	-1.0455812
203	0xbedbd053	-0.42932376
204	0xbec04906	-0.37555712
205	0x3f14d4fb	0.5813748
206	0x3eb4adff	0.35288998
207	0xbde96fbe	-0.11398266
208	0xbe8fb503	-0.28067788
209	0x3f3555ac	0.7083385
210	0xbf93b85a	-1.1540635
211	0xba781564	-0.00094636367
212	0x3e04619e	0.12927863
213	0xbf5e25c7	-0.86776394
214	0xbf4b5870	-0.7943182
215	0xbf8c0fa0	-1.0942268
216	0x3ebe9034	0.37219393
217	0xbfb97f5a	-1.449199
218	0xbe5d63d3	-0.21620111
219	0x3e050035	0.1298836
220	0xbd94402b	-0.072388016
221	0x3f6b5a55	0.9193471
222	0x3f9fb654	1.2477517
223	0x3eb0e70d	0.34551278
224	0x3f04e9c7	0.51919216
225	0x3d90b628	0.070659935
226	0xbe923da4	-0.28562653
227	0xbe9cea82	-0.30647665
228	0x3e11702c	0.14202946
229	0xbfd52dea	-1.6654637
230	0xbef1273b	-0.47100243
231	0xbf4eb617	-0.807466
232	0x3f5e6510	0.8687296
233	0xbf8f4728	-1.119359
234	0xbf453e49	-0.77048165
235	0xbfe222da	-1.7666886
236	0x3f9aa2c8	1.2080927
237	0xbf096663	-0.53671855
238	0x3f97ae02	1.1849978
239	0x3fdb0106	1.7109687
